---
import ProjectLayout from "../../layouts/ProjectLayout.astro";

const frontmatter = {
  title: "Watchtower NOC Dashboard",
  status: "In Progress",
  statusType: "ongoing",
  origin: "Polk State College",
  date: "2026.01",
  techStack: ["FastAPI", "React", "TypeScript", "Redis", "WebSocket", "ReactFlow", "Zustand", "TailwindCSS", "Proxmox API", "LibreNMS API"],
};

// Data sources
const dataSources = [
  { name: "LibreNMS", type: "SNMP Metrics", provides: "Device status, interfaces, port traffic, CDP/LLDP neighbors", color: "#10b981" },
  { name: "Netdisco", type: "L2 Discovery", provides: "MAC tables, device inventory, switch port mappings", color: "#3b82f6" },
  { name: "Proxmox", type: "Virtualization", provides: "VM/container lists, CPU/memory, storage pools", color: "#f59e0b" },
  { name: "Speedtest CLI", type: "WAN Health", provides: "Download/upload speeds, latency, jitter", color: "#8b5cf6" },
];

// Features list
const features = [
  {
    name: "Interactive Topology Canvas",
    desc: "Draggable network map with expandable clusters, device status indicators, and animated connection links",
    tech: "ReactFlow + Zustand + WebSocket",
    icon: "🗺️",
    anchor: "topology-canvas"
  },
  {
    name: "Real-Time Updates",
    desc: "WebSocket pushes live device status, health metrics, and link changes without polling",
    tech: "FastAPI WebSocket + APScheduler",
    icon: "⚡",
    anchor: "websocket-updates"
  },
  {
    name: "CDP/LLDP Link Discovery",
    desc: "Automatic discovery of physical connections via CDP/LLDP, merged with static topology.yaml",
    tech: "LibreNMS API + Redis cache",
    icon: "🔗",
    anchor: "cdp-lldp-discovery"
  },
  {
    name: "L2/L3 View Toggle",
    desc: "Switch between Physical (cable connections) and Logical (VLAN relationships) topology views",
    tech: "ReactFlow layout transforms",
    icon: "🔀",
    anchor: "l2l3-toggle"
  },
  {
    name: "Cisco-Style Port Grid",
    desc: "Visual switch port layout with real-time status colors and hover tooltips",
    tech: "Custom React components",
    icon: "🔌",
    anchor: "port-grid"
  },
  {
    name: "Proxmox Panel",
    desc: "Live dashboard of VMs, containers, and storage pools for selected hypervisor nodes",
    tech: "Proxmox API integration",
    icon: "🖥️",
    anchor: "proxmox-panel"
  },
  {
    name: "Speedtest Widget",
    desc: "Scheduled WAN health tests with CSV history and external link coloring",
    tech: "Ookla CLI + Redis cache",
    icon: "📶",
    anchor: "speedtest"
  },
  {
    name: "Port Group Monitoring",
    desc: "Aggregate traffic across ports matching a pattern (e.g., all lab ports)",
    tech: "SNMP ifOctets aggregation",
    icon: "📊",
    anchor: "port-groups"
  },
  {
    name: "Port Search",
    desc: "Find switch ports by searching SNMP descriptions (ifAlias)",
    tech: "LibreNMS API query",
    icon: "🔍",
    anchor: "port-search"
  },
  {
    name: "Mermaid Export",
    desc: "Export topology as Mermaid diagram for documentation with built-in viewer",
    tech: "Frontend Mermaid generator",
    icon: "📝",
    anchor: "mermaid-export"
  },
  {
    name: "Alert System",
    desc: "Real-time alerts from device status changes with acknowledgment",
    tech: "Derived from device state",
    icon: "🔔",
    anchor: "alert-system"
  },
];

// Tech decisions
const techDecisions = [
  { decision: "WebSocket over polling", reason: "Reduces latency and server load for real-time updates" },
  { decision: "Redis caching", reason: "Fast in-memory access for frequently-read topology data" },
  { decision: "Multi-source aggregation", reason: "No single monitoring tool has complete network visibility" },
  { decision: "ReactFlow for topology", reason: "Handles complex graph layouts with built-in pan/zoom/interactions" },
  { decision: "Zustand over Redux", reason: "Simpler state management for medium complexity app" },
  { decision: "APScheduler", reason: "Reliable job scheduling with configurable intervals per data type" },
  { decision: "YAML configuration", reason: "Human-readable, easy to version control (minus secrets)" },
  { decision: "TypeScript throughout", reason: "Type safety for complex nested data models" },
];

// Development phases
const phases = [
  { phase: 1, name: "Core Dashboard", status: "completed", items: ["FastAPI backend", "React frontend", "Basic topology"] },
  { phase: 2, name: "Dual-View Topology", status: "completed", items: ["L2/L3 toggle", "VLAN filtering", "Cluster nodes"] },
  { phase: 3, name: "Integrations", status: "completed", items: ["LibreNMS polling", "Proxmox panel", "Netdisco data"] },
  { phase: 4, name: "Auto-Discovery", status: "completed", items: ["CDP/LLDP links", "Dynamic topology", "Collision detection"] },
  { phase: 5, name: "Monitoring Widgets", status: "completed", items: ["Speedtest", "Port groups", "Port search"] },
  { phase: 6, name: "Export & Polish", status: "completed", items: ["Mermaid export", "CSV logging", "Collapsible widgets"] },
  { phase: 7, name: "Authentication", status: "pending", items: ["JWT auth", "User sessions", "Role-based access"] },
  { phase: 8, name: "Settings UI", status: "pending", items: ["Config editor", "Polling controls", "Theme options"] },
  { phase: 9, name: "Remote Notifications", status: "pending", items: ["Discord webhooks", "Email alerts", "Escalation rules"] },
];
---

<ProjectLayout frontmatter={frontmatter}>
  <!-- Overview -->
  <h2>// Overview</h2>
  <p>
    Watchtower is a self-hosted Network Operations Center dashboard that provides unified visibility into
    network infrastructure, virtualization platforms, and system health. It aggregates data from multiple
    monitoring systems into a single interactive topology visualization with live status updates via WebSocket.
  </p>

  <!-- GitHub Link -->
  <div class="github-callout">
    <div class="github-content">
      <div class="github-icon">
        <svg xmlns="http://www.w3.org/2000/svg" viewBox="0 0 16 16" fill="currentColor">
          <path d="M8 0C3.58 0 0 3.58 0 8c0 3.54 2.29 6.53 5.47 7.59.4.07.55-.17.55-.38 0-.19-.01-.82-.01-1.49-2.01.37-2.53-.49-2.69-.94-.09-.23-.48-.94-.82-1.13-.28-.15-.68-.52-.01-.53.63-.01 1.08.58 1.23.82.72 1.21 1.87.87 2.33.66.07-.52.28-.87.51-1.07-1.78-.2-3.64-.89-3.64-3.95 0-.87.31-1.59.82-2.15-.08-.2-.36-1.02.08-2.12 0 0 .67-.21 2.2.82.64-.18 1.32-.27 2-.27s1.36.09 2 .27c1.53-1.04 2.2-.82 2.2-.82.44 1.1.16 1.92.08 2.12.51.56.82 1.27.82 2.15 0 3.07-1.87 3.75-3.65 3.95.29.25.54.73.54 1.48 0 1.07-.01 1.93-.01 2.2 0 .21.15.46.55.38A8.01 8.01 0 0 0 16 8c0-4.42-3.58-8-8-8"/>
        </svg>
      </div>
      <div class="github-text">
        <span class="github-label">Open Source</span>
        <p class="github-desc">50+ commits, TypeScript 52% / Python 43%</p>
      </div>
    </div>
    <div class="github-actions">
      <a href="https://github.com/solomonneas/watchtower" target="_blank" class="github-btn repo">
        <svg xmlns="http://www.w3.org/2000/svg" viewBox="0 0 16 16" fill="currentColor" width="16" height="16">
          <path d="M8 0C3.58 0 0 3.58 0 8c0 3.54 2.29 6.53 5.47 7.59.4.07.55-.17.55-.38 0-.19-.01-.82-.01-1.49-2.01.37-2.53-.49-2.69-.94-.09-.23-.48-.94-.82-1.13-.28-.15-.68-.52-.01-.53.63-.01 1.08.58 1.23.82.72 1.21 1.87.87 2.33.66.07-.52.28-.87.51-1.07-1.78-.2-3.64-.89-3.64-3.95 0-.87.31-1.59.82-2.15-.08-.2-.36-1.02.08-2.12 0 0 .67-.21 2.2.82.64-.18 1.32-.27 2-.27s1.36.09 2 .27c1.53-1.04 2.2-.82 2.2-.82.44 1.1.16 1.92.08 2.12.51.56.82 1.27.82 2.15 0 3.07-1.87 3.75-3.65 3.95.29.25.54.73.54 1.48 0 1.07-.01 1.93-.01 2.2 0 .21.15.46.55.38A8.01 8.01 0 0 0 16 8c0-4.42-3.58-8-8-8"/>
        </svg>
        <span>View Repository</span>
      </a>
      <a href="https://github.com/solomonneas/watchtower/stargazers" target="_blank" class="github-btn star">
        <svg xmlns="http://www.w3.org/2000/svg" viewBox="0 0 16 16" fill="currentColor" width="16" height="16">
          <path d="M8 .25a.75.75 0 0 1 .673.418l1.882 3.815 4.21.612a.75.75 0 0 1 .416 1.279l-3.046 2.97.719 4.192a.75.75 0 0 1-1.088.791L8 12.347l-3.766 1.98a.75.75 0 0 1-1.088-.79l.72-4.194L.818 6.374a.75.75 0 0 1 .416-1.28l4.21-.611L7.327.668A.75.75 0 0 1 8 .25Z"/>
        </svg>
        <span>Star on GitHub</span>
      </a>
    </div>
  </div>

  <!-- Cost Savings -->
  <h2>// The Numbers: Cost Avoidance</h2>
  <p class="section-intro">
    Enterprise monitoring platforms carry significant licensing costs. For a 200-endpoint departmental network, here's what commercial alternatives would cost:
  </p>

  <div class="cost-comparison">
    <div class="cost-card solarwinds">
      <div class="cost-header">
        <span class="cost-icon">💸</span>
        <span class="cost-label">SolarWinds (200 nodes)</span>
      </div>
      <div class="cost-body">
        <div class="cost-row">
          <span class="cost-key">Annual License</span>
          <span class="cost-value bad">$29,448</span>
        </div>
        <div class="cost-row">
          <span class="cost-key">Implementation + Training</span>
          <span class="cost-value bad">$5,000–$13,000</span>
        </div>
        <div class="cost-row">
          <span class="cost-key">3-Year TCO</span>
          <span class="cost-value bad">$110K–$150K</span>
        </div>
        <div class="cost-row">
          <span class="cost-key">Per Endpoint</span>
          <span class="cost-value bad">$147–$177/year</span>
        </div>
      </div>
    </div>

    <div class="cost-arrow">
      <div class="arrow-savings">
        <span class="savings-label">3-YEAR SAVINGS</span>
        <span class="savings-value">$110K–$150K</span>
      </div>
    </div>

    <div class="cost-card watchtower-card">
      <div class="cost-header">
        <span class="cost-icon">✓</span>
        <span class="cost-label">Watchtower</span>
      </div>
      <div class="cost-body">
        <div class="cost-row">
          <span class="cost-key">Annual License</span>
          <span class="cost-value good">$0</span>
        </div>
        <div class="cost-row">
          <span class="cost-key">Implementation</span>
          <span class="cost-value good">$0</span>
        </div>
        <div class="cost-row">
          <span class="cost-key">3-Year TCO</span>
          <span class="cost-value good">$0</span>
        </div>
        <div class="cost-row">
          <span class="cost-key">Per Endpoint</span>
          <span class="cost-value good">$0</span>
        </div>
      </div>
    </div>
  </div>

  <div class="savings-highlight">
    <div class="highlight-stat">
      <span class="stat-value">100% cost reduction</span>
      <span class="stat-label">200+ endpoints monitored at zero additional cost</span>
    </div>
  </div>

  <div class="value-context">
    <div class="context-item">
      <span class="context-icon">🏛️</span>
      <div class="context-content">
        <span class="context-title">State College Spending</span>
        <span class="context-desc">Montgomery College: <a href="https://www.montgomerycountymd.gov/OMB/Resources/Files/omb/pdfs/fy27/ciprec/P076619.pdf" target="_blank">$4.1M/year</a> on NOC. UNC System: <a href="https://www.northcarolina.edu/apps/bog/doc.php?id=67354&code=bog" target="_blank">$5.35M/year</a> on network monitoring. <a href="https://campustechnology.com/articles/2019/07/08/number-of-institutions-with-it-networking-budgets-exceeding.aspx" target="_blank">48% of colleges</a> spend $750K–$2.5M annually.</span>
      </div>
    </div>
    <div class="context-item">
      <span class="context-icon">📊</span>
      <div class="context-content">
        <span class="context-title">Market Context</span>
        <span class="context-desc"><a href="https://www.dirsec.com/insights/the-hidden-threat-why-83-of-universities-without-siem-and-identity-tools-are-vulnerable/" target="_blank">83% of universities</a> lack effective SIEM. Custom NOC development costs <a href="https://www.inoc.com/blog/costs-of-building-noc" target="_blank">$100K–$500K</a>. Average IT outage costs <a href="https://thenetworkinstallers.com/blog/cost-of-it-downtime-statistics/" target="_blank">$14,056/minute</a>.</span>
      </div>
    </div>
  </div>

  <p class="cost-sources">
    SolarWinds pricing: <a href="https://www.vendr.com/buyer-guides/solarwinds" target="_blank">Vendr</a> · <a href="https://www.netdata.cloud/blog/solarwinds-price-increases-2025/" target="_blank">Netdata</a> · <a href="https://www.manageengine.com/blog/itom/solarwinds-is-now-forcing-3year-subscription-heres-what-it-means-for-your-it-stack.html" target="_blank">ManageEngine</a>
  </p>

  <!-- Architecture -->
  <h2>// Architecture</h2>
  <div class="architecture">
    <!-- Data Sources Layer -->
    <div class="arch-layer sources">
      <span class="layer-label">DATA SOURCES</span>
      <div class="source-grid">
        {dataSources.map((src) => (
          <div class="source-card" style={`--accent: ${src.color}`}>
            <span class="source-name">{src.name}</span>
            <span class="source-type">{src.type}</span>
            <span class="source-provides">{src.provides}</span>
          </div>
        ))}
      </div>
    </div>

    <div class="arch-connector">
      <div class="connector-arrows">
        <span>▼</span><span>▼</span><span>▼</span><span>▼</span>
      </div>
      <span class="connector-label">Async Polling (httpx)</span>
    </div>

    <!-- Backend Layer -->
    <div class="arch-layer backend">
      <span class="layer-label">BACKEND</span>
      <div class="backend-flow">
        <div class="backend-box scheduler">
          <span class="box-title">APScheduler</span>
          <span class="box-desc">Polling jobs at 30s-300s intervals</span>
        </div>
        <span class="flow-arrow">→</span>
        <div class="backend-box aggregator">
          <span class="box-title">Aggregator</span>
          <span class="box-desc">Merges sources into unified model</span>
        </div>
        <span class="flow-arrow">→</span>
        <div class="backend-box redis">
          <span class="box-title">Redis</span>
          <span class="box-desc">In-memory cache</span>
        </div>
        <span class="flow-arrow">→</span>
        <div class="backend-box api">
          <span class="box-title">FastAPI</span>
          <span class="box-desc">REST + WebSocket</span>
        </div>
      </div>
    </div>

    <div class="arch-connector">
      <div class="connector-arrows">
        <span>▼</span>
      </div>
      <span class="connector-label">WebSocket Push</span>
    </div>

    <!-- Frontend Layer -->
    <div class="arch-layer frontend">
      <span class="layer-label">FRONTEND</span>
      <div class="frontend-grid">
        <div class="frontend-box main">
          <span class="box-title">TopologyCanvas</span>
          <span class="box-desc">ReactFlow interactive map</span>
          <ul class="box-features">
            <li>Cluster nodes (expand/collapse)</li>
            <li>Device status indicators</li>
            <li>Animated link edges</li>
            <li>L2/L3 view toggle</li>
          </ul>
        </div>
        <div class="frontend-box sidebar">
          <span class="box-title">Sidebar Widgets</span>
          <span class="box-desc">Collapsible panels</span>
          <ul class="box-features">
            <li>Network Summary</li>
            <li>Speedtest Widget</li>
            <li>Port Groups</li>
            <li>Device Card + Port Grid</li>
          </ul>
        </div>
        <div class="frontend-box state">
          <span class="box-title">Zustand Store</span>
          <span class="box-desc">Global state + WS subscription</span>
        </div>
      </div>
    </div>
  </div>

  <!-- Features -->
  <h2>// Features</h2>
  <div class="features-grid">
    {features.map((feat) => (
      feat.anchor ? (
        <a href={`#${feat.anchor}`} class="feature-card clickable">
          <div class="feature-header">
            <span class="feature-icon">{feat.icon}</span>
            <span class="feature-name">{feat.name}</span>
          </div>
          <p class="feature-desc">{feat.desc}</p>
          <span class="feature-tech">{feat.tech}</span>
        </a>
      ) : (
        <div class="feature-card">
          <div class="feature-header">
            <span class="feature-icon">{feat.icon}</span>
            <span class="feature-name">{feat.name}</span>
          </div>
          <p class="feature-desc">{feat.desc}</p>
          <span class="feature-tech">{feat.tech}</span>
        </div>
      )
    ))}
  </div>

  <!-- Data Flow Example -->
  <h2 id="data-flow">// Data Flow Example</h2>
  <p class="section-intro">How a device status change propagates through the system:</p>

  <div class="dataflow">
    <div class="flow-step" style="--step: 1">
      <div class="step-num">1</div>
      <div class="step-content">
        <span class="step-title">Detection</span>
        <span class="step-desc">APScheduler polls LibreNMS API at 30s interval</span>
      </div>
    </div>
    <div class="flow-connector"><div class="connector-pulse"></div></div>

    <div class="flow-step" style="--step: 2">
      <div class="step-num">2</div>
      <div class="step-content">
        <span class="step-title">Aggregation</span>
        <span class="step-desc">Device status change detected, Pydantic model updated</span>
      </div>
    </div>
    <div class="flow-connector"><div class="connector-pulse"></div></div>

    <div class="flow-step" style="--step: 3">
      <div class="step-num">3</div>
      <div class="step-content">
        <span class="step-title">Cache Update</span>
        <span class="step-desc">Redis CACHE_TOPOLOGY key updated with new state</span>
      </div>
    </div>
    <div class="flow-connector"><div class="connector-pulse"></div></div>

    <div class="flow-step" style="--step: 4">
      <div class="step-num">4</div>
      <div class="step-content">
        <span class="step-title">Broadcast</span>
        <span class="step-desc">WebSocket pushes delta to all connected clients</span>
      </div>
    </div>
    <div class="flow-connector"><div class="connector-pulse"></div></div>

    <div class="flow-step" style="--step: 5">
      <div class="step-num">5</div>
      <div class="step-content">
        <span class="step-title">State Update</span>
        <span class="step-desc">Zustand store receives message, updates React state</span>
      </div>
    </div>
    <div class="flow-connector"><div class="connector-pulse"></div></div>

    <div class="flow-step" style="--step: 6">
      <div class="step-num">6</div>
      <div class="step-content">
        <span class="step-title">Re-render</span>
        <span class="step-desc">Device node color changes, alert count increments</span>
      </div>
    </div>
  </div>

  <!-- Feature Deep Dive: WebSocket Real-Time Updates -->
  <div class="feature-deepdive" id="websocket-updates">
    <h2>// Feature Deep Dive: WebSocket Real-Time Updates</h2>
    <p class="deepdive-intro">
      Bidirectional WebSocket connection that pushes device status changes, alert notifications, and speedtest
      results from the backend to all connected dashboard clients without requiring page refreshes or polling.
    </p>

    <div class="usecase-block">
      <div class="usecase-header">
        <span class="usecase-icon">⚡</span>
        <span class="usecase-title">Use Case: Instant Incident Detection</span>
      </div>
      <p class="usecase-desc">
        NOC operators need immediate notification when device status changes. Instead of waiting 30-60 seconds for
        the next poll cycle, the WebSocket pushes updates in real-time: a switch going down appears on the dashboard
        within seconds. This enables faster incident response and reduces mean time to detection (MTTD).
      </p>
    </div>

    <h3 class="deepdive-subhead">// Architecture</h3>
    <div class="ws-architecture">
      <div class="ws-layer scheduler">
        <div class="ws-layer-header">
          <span class="ws-layer-icon">⏰</span>
          <span class="ws-layer-title">POLLING SCHEDULER</span>
        </div>
        <div class="ws-pollers">
          <div class="ws-poller">
            <div class="poller-name">poll_devices()</div>
            <div class="poller-interval">Every 30s</div>
            <div class="poller-action">Fetch status from LibreNMS → Compare previous vs current → broadcast_status_changes()</div>
          </div>
          <div class="ws-poller">
            <div class="poller-name">poll_alerts()</div>
            <div class="poller-interval">Every 30s</div>
            <div class="poller-action">Detect new/resolved alerts → broadcast_new_alerts() / broadcast_resolved_alerts()</div>
          </div>
          <div class="ws-poller">
            <div class="poller-name">run_speedtest()</div>
            <div class="poller-interval">Every 5m</div>
            <div class="poller-action">Run speedtest CLI → broadcast_speedtest_result()</div>
          </div>
        </div>
      </div>

      <div class="ws-arrow-down">▼ broadcast()</div>

      <div class="ws-layer manager">
        <div class="ws-layer-header">
          <span class="ws-layer-icon">🔌</span>
          <span class="ws-layer-title">ConnectionManager (ws_manager)</span>
        </div>
        <div class="ws-manager-content">
          <code>active_connections: list[WebSocket]</code>
          <div class="ws-manager-flow">
            <span>broadcast(message)</span>
            <span class="ws-flow-arrow">→</span>
            <span>For each connection: await connection.send_json(message)</span>
          </div>
        </div>
      </div>

      <div class="ws-arrow-down">▼ send_json()</div>

      <div class="ws-layer clients">
        <div class="ws-layer-header">
          <span class="ws-layer-icon">🖥️</span>
          <span class="ws-layer-title">WEBSOCKET CLIENTS</span>
        </div>
        <div class="ws-clients-grid">
          <div class="ws-client">Browser Tab 1</div>
          <div class="ws-client">Browser Tab 2</div>
          <div class="ws-client">Browser Tab 3</div>
        </div>
        <div class="ws-hook">
          <div class="ws-hook-name">useWebSocket() hook</div>
          <div class="ws-hook-handlers">
            <div class="ws-handler">
              <span class="handler-msg">device_status_change</span>
              <span class="handler-arrow">→</span>
              <span class="handler-action">updateDeviceStatus() → Canvas rerender</span>
            </div>
            <div class="ws-handler">
              <span class="handler-msg">new_alerts</span>
              <span class="handler-arrow">→</span>
              <span class="handler-action">addAlert() → Toast + Bell badge</span>
            </div>
            <div class="ws-handler">
              <span class="handler-msg">alerts_resolved</span>
              <span class="handler-arrow">→</span>
              <span class="handler-action">removeAlert() → Toast removed</span>
            </div>
            <div class="ws-handler">
              <span class="handler-msg">speedtest_result</span>
              <span class="handler-arrow">→</span>
              <span class="handler-action">setSpeedtestStatus() → WAN link color</span>
            </div>
          </div>
        </div>
      </div>
    </div>

    <h3 class="deepdive-subhead">// Message Types: Server → Client</h3>
    <div class="ws-messages-grid">
      <div class="ws-message-card">
        <div class="ws-msg-header">
          <span class="ws-msg-type">connected</span>
        </div>
        <div class="ws-msg-desc">Sent immediately after WebSocket connection established</div>
        <div class="ws-msg-payload">
          <pre><code>{`{
  "type": "connected",
  "message": "Connected to Watchtower"
}`}</code></pre>
        </div>
      </div>

      <div class="ws-message-card">
        <div class="ws-msg-header">
          <span class="ws-msg-type">device_status_change</span>
        </div>
        <div class="ws-msg-desc">Sent when device status changes (up ↔ down)</div>
        <div class="ws-msg-payload">
          <pre><code>{`{
  "type": "device_status_change",
  "timestamp": "2026-01-28T10:42:15.123Z",
  "changes": [{
    "device_id": 42,
    "hostname": "cat-1.corp.local",
    "old_status": "up",
    "new_status": "down"
  }]
}`}</code></pre>
        </div>
      </div>

      <div class="ws-message-card">
        <div class="ws-msg-header">
          <span class="ws-msg-type">new_alerts</span>
        </div>
        <div class="ws-msg-desc">Sent when new LibreNMS alerts fire</div>
        <div class="ws-msg-payload">
          <pre><code>{`{
  "type": "new_alerts",
  "timestamp": "2026-01-28T10:42:15.123Z",
  "alerts": [{
    "id": 4521,
    "device_id": 42,
    "hostname": "cat-1.corp.local",
    "severity": "critical",
    "title": "Device unreachable"
  }]
}`}</code></pre>
        </div>
      </div>

      <div class="ws-message-card">
        <div class="ws-msg-header">
          <span class="ws-msg-type">alerts_resolved</span>
        </div>
        <div class="ws-msg-desc">Sent when alerts are cleared (device recovered)</div>
        <div class="ws-msg-payload">
          <pre><code>{`{
  "type": "alerts_resolved",
  "timestamp": "2026-01-28T10:45:30.456Z",
  "alert_ids": [4521, 4522]
}`}</code></pre>
        </div>
      </div>

      <div class="ws-message-card">
        <div class="ws-msg-header">
          <span class="ws-msg-type">speedtest_result</span>
        </div>
        <div class="ws-msg-desc">Sent after each speedtest completes</div>
        <div class="ws-msg-payload">
          <pre><code>{`{
  "type": "speedtest_result",
  "timestamp": "2026-01-28T10:45:00.000Z",
  "result": {
    "download_mbps": 245.5,
    "upload_mbps": 125.3,
    "ping_ms": 12.5,
    "indicator": "normal"
  }
}`}</code></pre>
        </div>
      </div>

      <div class="ws-message-card keepalive">
        <div class="ws-msg-header">
          <span class="ws-msg-type">ping / pong</span>
        </div>
        <div class="ws-msg-desc">Keepalive messages (client sends ping every 30s)</div>
        <div class="ws-msg-payload">
          <pre><code>{`{ "type": "ping" }  // Client → Server
{ "type": "pong" }  // Server → Client`}</code></pre>
        </div>
      </div>
    </div>

    <h3 class="deepdive-subhead">// Connection Lifecycle</h3>
    <div class="ws-lifecycle">
      <div class="lifecycle-row">
        <div class="lifecycle-client">CLIENT</div>
        <div class="lifecycle-arrow"></div>
        <div class="lifecycle-server">SERVER</div>
      </div>
      <div class="lifecycle-event">
        <div class="lifecycle-msg outgoing">new WebSocket('/ws/updates')</div>
        <div class="lifecycle-action">ws_manager.connect(ws)<br/>active_connections.append(ws)</div>
      </div>
      <div class="lifecycle-event">
        <div class="lifecycle-msg incoming">{`{"type": "connected", ...}`}</div>
        <div class="lifecycle-action"></div>
      </div>
      <div class="lifecycle-event">
        <div class="lifecycle-msg outgoing">{`{"type": "ping"}`}</div>
        <div class="lifecycle-note">every 30s</div>
      </div>
      <div class="lifecycle-event">
        <div class="lifecycle-msg incoming">{`{"type": "pong"}`}</div>
        <div class="lifecycle-action"></div>
      </div>
      <div class="lifecycle-event">
        <div class="lifecycle-msg incoming">{`{"type": "device_status_change", ...}`}</div>
        <div class="lifecycle-action">poll_devices() detects change</div>
      </div>
      <div class="lifecycle-event disconnect">
        <div class="lifecycle-msg">Connection lost / closed</div>
        <div class="lifecycle-action">ws_manager.disconnect(ws)<br/>active_connections.remove(ws)</div>
      </div>
      <div class="lifecycle-reconnect">
        <div class="reconnect-label">Exponential backoff reconnect</div>
        <div class="reconnect-delays">1s → 2s → 4s → 8s → 16s → 30s max</div>
      </div>
    </div>

    <h3 class="deepdive-subhead">// Reconnection Strategy</h3>
    <div class="reconnect-flow">
      <div class="reconnect-step trigger">
        <span class="step-label">DISCONNECTION DETECTED</span>
      </div>
      <div class="reconnect-arrow">▼</div>
      <div class="reconnect-step calc">
        <span class="step-label">Calculate backoff delay</span>
        <code>delay = min(1000 * 2^attempts, 30000)</code>
      </div>
      <div class="reconnect-delays-table">
        <div class="delay-row"><span>attempt 0:</span><span>1000ms (1s)</span></div>
        <div class="delay-row"><span>attempt 1:</span><span>2000ms (2s)</span></div>
        <div class="delay-row"><span>attempt 2:</span><span>4000ms (4s)</span></div>
        <div class="delay-row"><span>attempt 3:</span><span>8000ms (8s)</span></div>
        <div class="delay-row"><span>attempt 4:</span><span>16000ms (16s)</span></div>
        <div class="delay-row"><span>attempt 5+:</span><span>30000ms (30s max)</span></div>
      </div>
      <div class="reconnect-arrow">▼</div>
      <div class="reconnect-step wait">
        <span class="step-label">setTimeout(reconnect, delay)</span>
      </div>
      <div class="reconnect-arrow">▼</div>
      <div class="reconnect-step attempt">
        <span class="step-label">Attempt connection</span>
        <div class="attempt-outcomes">
          <span class="outcome success">SUCCESS → reconnectAttempts = 0</span>
          <span class="outcome failure">FAILURE → goto "Calculate backoff"</span>
        </div>
      </div>
    </div>

    <h3 class="deepdive-subhead">// Device Hostname Matching</h3>
    <div class="hostname-matching">
      <div class="matching-problem">
        <div class="problem-label">PROBLEM</div>
        <div class="problem-content">
          <div class="problem-row">
            <span class="problem-source">LibreNMS sends:</span>
            <code>"cat-1.corp.local"</code>
          </div>
          <div class="problem-row">
            <span class="problem-source">Topology uses:</span>
            <code>"cat-1"</code>
          </div>
        </div>
      </div>
      <div class="matching-algorithm">
        <div class="algo-header">ALGORITHM: findTopologyDeviceId(hostname, devices)</div>
        <div class="algo-steps">
          <div class="algo-step">
            <span class="step-num">1</span>
            <div class="step-content">
              <span class="step-name">IP Address Match</span>
              <span class="step-logic">IF device.ip === hostname → RETURN device.id</span>
            </div>
          </div>
          <div class="algo-step">
            <span class="step-num">2</span>
            <div class="step-content">
              <span class="step-name">Fuzzy Hostname Match</span>
              <span class="step-logic">IF hostname.toLowerCase().includes(device_id.toLowerCase()) → RETURN device.id</span>
              <span class="step-example">Example: "cat-1.corp.local".includes("cat-1") → true</span>
            </div>
          </div>
          <div class="algo-step">
            <span class="step-num">3</span>
            <div class="step-content">
              <span class="step-name">No Match</span>
              <span class="step-logic">RETURN null, log warning</span>
            </div>
          </div>
        </div>
      </div>
    </div>

    <h3 class="deepdive-subhead">// Component Structure</h3>
    <div class="ws-component-split">
      <div class="ws-component-col backend">
        <div class="component-col-header">Backend (Python/FastAPI)</div>
        <div class="component-tree">
          <div class="tree-file">websocket.py
            <div class="tree-contents">
              <span>ConnectionManager</span>
              <span class="tree-indent">├─ active_connections: list[WebSocket]</span>
              <span class="tree-indent">├─ connect(ws) → add to list</span>
              <span class="tree-indent">├─ disconnect(ws) → remove from list</span>
              <span class="tree-indent">└─ broadcast(msg) → send to all</span>
              <span>ws_manager (singleton)</span>
              <span>websocket_endpoint(ws)</span>
            </div>
          </div>
          <div class="tree-file">main.py
            <div class="tree-contents">
              <span>app.websocket("/ws/updates")</span>
            </div>
          </div>
          <div class="tree-file">polling/scheduler.py
            <div class="tree-contents">
              <span>broadcast_status_changes()</span>
              <span>broadcast_new_alerts()</span>
              <span>broadcast_resolved_alerts()</span>
              <span>broadcast_speedtest_result()</span>
            </div>
          </div>
        </div>
      </div>

      <div class="ws-component-col frontend">
        <div class="component-col-header">Frontend (React/TypeScript)</div>
        <div class="component-tree">
          <div class="tree-file">hooks/useWebSocket.ts
            <div class="tree-contents">
              <span>State: isConnected, wsRef, reconnectAttempts</span>
              <span>handleMessage()</span>
              <span class="tree-indent">├─ "connected" → console.log</span>
              <span class="tree-indent">├─ "device_status_change" → updateDeviceStatus()</span>
              <span class="tree-indent">├─ "new_alerts" → addAlert()</span>
              <span class="tree-indent">├─ "alerts_resolved" → removeAlert()</span>
              <span class="tree-indent">└─ "speedtest_result" → setSpeedtestStatus()</span>
              <span>connect(), disconnect()</span>
            </div>
          </div>
          <div class="tree-file">store/nocStore.ts
            <div class="tree-contents">
              <span>isConnected: boolean</span>
              <span>updateDeviceStatus()</span>
              <span>updateAlertCount()</span>
              <span>setSpeedtestStatus()</span>
            </div>
          </div>
        </div>
      </div>
    </div>

    <h3 class="deepdive-subhead">// URL Construction</h3>
    <div class="url-construction">
      <div class="url-code">
        <pre><code>const WS_URL = `$&#123;
  window.location.protocol === 'https:' ? 'wss:' : 'ws:'
&#125;//$&#123;window.location.host&#125;/ws/updates`</code></pre>
      </div>
      <div class="url-examples">
        <div class="url-example">
          <span class="url-input">http://watchtower.local:5173</span>
          <span class="url-arrow">→</span>
          <span class="url-output">ws://watchtower.local:5173/ws/updates</span>
        </div>
        <div class="url-example">
          <span class="url-input">https://watchtower.example.com</span>
          <span class="url-arrow">→</span>
          <span class="url-output">wss://watchtower.example.com/ws/updates</span>
        </div>
      </div>
    </div>

    <h3 class="deepdive-subhead">// Debug Helper (Browser Console)</h3>
    <div class="debug-helper">
      <div class="debug-intro">Exposed via <code>window.watchtower</code> in App.tsx:</div>
      <div class="debug-commands">
        <div class="debug-cmd">
          <code>window.watchtower.setDeviceDown('cat-1')</code>
          <span class="debug-desc">Simulate device going down</span>
        </div>
        <div class="debug-cmd">
          <code>window.watchtower.setDeviceUp('cat-1')</code>
          <span class="debug-desc">Simulate device coming back up</span>
        </div>
        <div class="debug-cmd">
          <code>window.watchtower.listDevices()</code>
          <span class="debug-desc">List all devices and their status</span>
        </div>
        <div class="debug-cmd">
          <code>window.watchtower.setSpeedtestDown()</code>
          <span class="debug-desc">Red external links</span>
        </div>
        <div class="debug-cmd">
          <code>window.watchtower.setSpeedtestDegraded()</code>
          <span class="debug-desc">Yellow external links</span>
        </div>
        <div class="debug-cmd">
          <code>window.watchtower.setSpeedtestNormal()</code>
          <span class="debug-desc">Green external links</span>
        </div>
        <div class="debug-cmd">
          <code>window.watchtower.getStore()</code>
          <span class="debug-desc">Get full store state</span>
        </div>
      </div>
    </div>

    <h3 class="deepdive-subhead">// Implementation Details</h3>
    <div class="tech-table">
      <div class="tech-row header">
        <span class="tech-label">Aspect</span>
        <span class="tech-value">Implementation</span>
      </div>
      <div class="tech-row">
        <span class="tech-label">Protocol</span>
        <span class="tech-value">WebSocket (RFC 6455)</span>
      </div>
      <div class="tech-row">
        <span class="tech-label">Endpoint</span>
        <span class="tech-value">/ws/updates</span>
      </div>
      <div class="tech-row">
        <span class="tech-label">Protocol auto-detect</span>
        <span class="tech-value">ws:// for HTTP, wss:// for HTTPS</span>
      </div>
      <div class="tech-row">
        <span class="tech-label">Ping interval</span>
        <span class="tech-value">30 seconds (client → server)</span>
      </div>
      <div class="tech-row">
        <span class="tech-label">Reconnect delays</span>
        <span class="tech-value">1s, 2s, 4s, 8s, 16s, 30s max</span>
      </div>
      <div class="tech-row">
        <span class="tech-label">Connection tracking</span>
        <span class="tech-value">ws_manager.active_connections list</span>
      </div>
      <div class="tech-row">
        <span class="tech-label">Thread safety</span>
        <span class="tech-value">asyncio.Lock() for connection list</span>
      </div>
      <div class="tech-row">
        <span class="tech-label">Message format</span>
        <span class="tech-value">JSON (send_json / JSON.parse)</span>
      </div>
      <div class="tech-row">
        <span class="tech-label">Device matching</span>
        <span class="tech-value">Fuzzy hostname matching with IP fallback</span>
      </div>
    </div>
  </div>

  <!-- Feature Deep Dive: Interactive Topology Canvas -->
  <div class="feature-deepdive" id="topology-canvas">
    <h2>// Feature Deep Dive: Interactive Topology Canvas</h2>
    <p class="deepdive-intro">
      The core visualization engine that renders the physical network topology using ReactFlow. Features
      expandable device clusters, automatic collision detection, drag-and-drop positioning with localStorage
      persistence, and dynamic edge routing that adapts to expanded/collapsed states.
    </p>

    <div class="usecase-block">
      <div class="usecase-header">
        <span class="usecase-icon">🗺️</span>
        <span class="usecase-title">Use Case: At-a-Glance Network View with Drill-Down</span>
      </div>
      <p class="usecase-desc">
        NOC operators need to see the entire network at a glance while being able to drill down into specific
        clusters. The canvas provides an interactive map where clusters can be expanded to show individual devices,
        nodes can be dragged to custom positions (persisted across sessions), and the layout automatically adjusts
        to prevent overlapping nodes.
      </p>
    </div>

    <h3 class="deepdive-subhead">// Architecture</h3>
    <div class="topology-arch-flow">
      <div class="arch-source">
        <div class="arch-source-label">TOPOLOGY DATA (from WebSocket)</div>
        <div class="arch-source-items">
          <span>topology.clusters[]</span>
          <span>topology.devices{}</span>
          <span>topology.connections[]</span>
          <span>topology.external_links[]</span>
        </div>
      </div>
      <div class="arch-arrow-down">▼</div>

      <div class="arch-processor">
        <div class="proc-header">topologyToNodes()</div>
        <div class="proc-logic">
          <div class="proc-rule">
            <span class="rule-condition">For each cluster:</span>
            <span class="rule-if">IF expanded →</span>
            <span class="rule-result">Create DeviceNode for each device (grid layout)</span>
          </div>
          <div class="proc-rule">
            <span class="rule-condition"></span>
            <span class="rule-if">ELSE →</span>
            <span class="rule-result">Create ClusterNode (collapsed view)</span>
          </div>
          <div class="proc-rule">
            <span class="rule-condition">For each external_link:</span>
            <span class="rule-if">→</span>
            <span class="rule-result">Create ExternalNode (WAN endpoints)</span>
          </div>
        </div>
      </div>
      <div class="arch-arrow-down">▼</div>

      <div class="arch-processor collision">
        <div class="proc-header">resolveOverlaps()</div>
        <div class="proc-steps">
          <span class="proc-step">1. Calculate bounding boxes for all nodes</span>
          <span class="proc-step">2. Check each pair for collision</span>
          <span class="proc-step">3. Push overlapping nodes apart</span>
          <span class="proc-step">4. Repeat until no overlaps (max 50 iterations)</span>
        </div>
      </div>
      <div class="arch-arrow-down">▼</div>

      <div class="arch-renderer">
        <div class="renderer-header">ReactFlow Canvas</div>
        <div class="renderer-controls">
          <span class="control-item">Pan: Click + Drag background</span>
          <span class="control-item">Zoom: Scroll wheel (0.2x - 2x)</span>
          <span class="control-item">Select: Click node → sidebar details</span>
          <span class="control-item">Expand: Double-click cluster → show devices</span>
          <span class="control-item">Collapse: Double-click device → hide cluster</span>
          <span class="control-item">Move: Drag node → position saved to localStorage</span>
        </div>
      </div>
    </div>

    <h3 class="deepdive-subhead">// Visual Layout: Collapsed View</h3>
    <p class="layout-desc">Default view shows clusters as single nodes with device status indicators:</p>

    <div class="canvas-mockup collapsed-view">
      <div class="canvas-toolbar">
        <span class="toolbar-btn active">Physical (L2)</span>
        <span class="toolbar-btn">Logical (L3)</span>
        <span class="toolbar-spacer"></span>
        <span class="toolbar-btn">Reset Layout</span>
      </div>
      <div class="canvas-area">
        <div class="mock-cluster firewalls" style="--x: 10%; --y: 20%;">
          <div class="cluster-icon">🛡️</div>
          <div class="cluster-label">Firewalls</div>
          <div class="cluster-dots">
            <span class="dot up"></span>
            <span class="dot up"></span>
          </div>
          <div class="cluster-summary">2 devices | All healthy</div>
        </div>

        <div class="mock-edge h1" style="--x1: 22%; --y1: 28%; --x2: 38%; --y2: 28%;"></div>

        <div class="mock-cluster core" style="--x: 40%; --y: 20%;">
          <div class="cluster-icon">🔌</div>
          <div class="cluster-label">Core Network</div>
          <div class="cluster-dots">
            <span class="dot up"></span>
            <span class="dot up"></span>
            <span class="dot up"></span>
          </div>
          <div class="cluster-summary">3 devices | All healthy</div>
        </div>

        <div class="mock-edge h2" style="--x1: 60%; --y1: 28%; --x2: 78%; --y2: 28%;"></div>

        <div class="mock-external" style="--x: 80%; --y: 20%;">
          <div class="external-glow"></div>
          <div class="external-content">
            <span class="external-icon-lg">☁</span>
            <span class="external-label">Internet</span>
          </div>
        </div>

        <div class="mock-edge v1" style="--x1: 17%; --y1: 42%; --x2: 17%; --y2: 58%;"></div>
        <div class="mock-edge v2" style="--x1: 52%; --y1: 42%; --x2: 52%; --y2: 58%;"></div>

        <div class="mock-cluster servers" style="--x: 10%; --y: 60%;">
          <div class="cluster-icon">🖥️</div>
          <div class="cluster-label">Servers</div>
          <div class="cluster-dots">
            <span class="dot up"></span>
            <span class="dot up"></span>
            <span class="dot up"></span>
            <span class="dot up"></span>
          </div>
          <div class="cluster-summary">4 devices | All healthy</div>
        </div>

        <div class="mock-cluster access warning" style="--x: 40%; --y: 60%;">
          <div class="cluster-icon">📡</div>
          <div class="cluster-label">Access Layer</div>
          <div class="cluster-dots">
            <span class="dot up"></span>
            <span class="dot up"></span>
            <span class="dot down"></span>
          </div>
          <div class="cluster-summary">3 devices | 1 down</div>
        </div>

        <div class="canvas-hint">Double-click cluster to expand</div>
      </div>
    </div>

    <h3 class="deepdive-subhead">// Visual Layout: Expanded View</h3>
    <p class="layout-desc">When a cluster is expanded, individual devices are shown in a grid layout:</p>

    <div class="canvas-mockup expanded-view">
      <div class="canvas-toolbar">
        <span class="toolbar-btn active">Physical (L2)</span>
        <span class="toolbar-btn">Logical (L3)</span>
        <span class="toolbar-spacer"></span>
        <span class="toolbar-btn">Reset Layout</span>
      </div>
      <div class="canvas-area">
        <div class="mock-cluster firewalls small" style="--x: 5%; --y: 35%;">
          <div class="cluster-label">Firewalls</div>
          <div class="cluster-dots">
            <span class="dot up"></span>
            <span class="dot up"></span>
          </div>
        </div>

        <div class="mock-edge h-exp" style="--x1: 16%; --y1: 42%; --x2: 24%; --y2: 30%;"></div>

        <div class="expanded-cluster-box" style="--x: 25%; --y: 10%;">
          <div class="expanded-header">Core Network (expanded)</div>
          <div class="expanded-devices">
            <div class="mock-device">
              <span class="device-status up"></span>
              <span class="device-name">cat-1</span>
              <span class="device-ip">10.2.10.1</span>
            </div>
            <div class="mock-device">
              <span class="device-status up"></span>
              <span class="device-name">cat-2</span>
              <span class="device-ip">10.2.10.2</span>
            </div>
            <div class="mock-device">
              <span class="device-status up"></span>
              <span class="device-name">cat-3</span>
              <span class="device-ip">10.2.10.3</span>
            </div>
          </div>
        </div>

        <div class="mock-edge v-exp" style="--x1: 48%; --y1: 55%; --x2: 48%; --y2: 72%;"></div>

        <div class="mock-cluster access small" style="--x: 35%; --y: 75%;">
          <div class="cluster-label">Access Layer</div>
          <div class="cluster-dots">
            <span class="dot up"></span>
            <span class="dot up"></span>
            <span class="dot down"></span>
          </div>
        </div>

        <div class="canvas-hint">Double-click device to collapse cluster</div>
      </div>
    </div>

    <h3 class="deepdive-subhead">// Node Types</h3>
    <div class="node-types-grid">
      <div class="node-type-card">
        <div class="node-type-header">ClusterNode (collapsed)</div>
        <div class="node-type-mockup cluster-node-mock">
          <div class="cnm-icon">🔌</div>
          <div class="cnm-name">Core Network</div>
          <div class="cnm-divider"></div>
          <div class="cnm-dots">
            <span class="dot up"></span>
            <span class="dot up"></span>
            <span class="dot up"></span>
            <span class="dot up"></span>
            <span class="dot up"></span>
            <span class="dot up"></span>
            <span class="dot up"></span>
            <span class="dot up"></span>
          </div>
          <div class="cnm-divider"></div>
          <div class="cnm-summary">8 devices &nbsp;&nbsp; All healthy</div>
          <div class="cnm-handles">
            <span class="handle top"></span>
            <span class="handle right"></span>
            <span class="handle bottom"></span>
            <span class="handle left"></span>
          </div>
        </div>
        <div class="node-type-action">Double-click to expand</div>
      </div>

      <div class="node-type-card">
        <div class="node-type-header">DeviceNode (expanded)</div>
        <div class="node-type-mockup device-node-mock">
          <div class="dnm-status up"></div>
          <div class="dnm-info">
            <span class="dnm-name">cat-1</span>
            <span class="dnm-ip">10.2.10.1</span>
          </div>
          <div class="dnm-handles">
            <span class="handle top"></span>
            <span class="handle right"></span>
            <span class="handle bottom"></span>
            <span class="handle left"></span>
          </div>
        </div>
        <div class="node-type-action">Double-click to collapse cluster</div>
      </div>

      <div class="node-type-card">
        <div class="node-type-header">ExternalNode (WAN)</div>
        <div class="node-type-mockup external-node-mock">
          <div class="enm-glow"></div>
          <div class="enm-icon">☁</div>
          <div class="enm-label">Internet</div>
        </div>
        <div class="node-type-desc">Glowing border color reflects speedtest status</div>
      </div>
    </div>

    <h3 class="deepdive-subhead">// Collision Detection Algorithm</h3>
    <div class="algorithm-block">
      <div class="algo-section">
        <div class="algo-label">INPUT</div>
        <div class="algo-content">nodes[] after position assignment</div>
      </div>
      <div class="algo-section">
        <div class="algo-label">CONSTANTS</div>
        <div class="algo-content">
          <code>NODE_SIZES = {`{ cluster: 180×120, device: 160×80, external: 140×100 }`}</code><br/>
          <code>PADDING = 40px</code>
        </div>
      </div>
      <div class="algo-section">
        <div class="algo-label">STEP 1</div>
        <div class="algo-content">
          Calculate bounding boxes for each node:<br/>
          <code>box = {`{ x: node.x - PADDING, y: node.y - PADDING, width: size + PADDING*2, height: size + PADDING*2 }`}</code>
        </div>
      </div>
      <div class="algo-section">
        <div class="algo-label">STEP 2</div>
        <div class="algo-content">
          Check for overlaps:<br/>
          <code>boxesOverlap(a, b) = !(a.right &lt; b.x || b.right &lt; a.x || a.bottom &lt; b.y || b.bottom &lt; a.y)</code>
        </div>
      </div>
      <div class="algo-section">
        <div class="algo-label">STEP 3</div>
        <div class="algo-content">
          Calculate push vector (push along shortest overlap axis):<br/>
          <code>IF overlapX &lt; overlapY → push horizontally ELSE → push vertically</code>
        </div>
      </div>
      <div class="algo-section">
        <div class="algo-label">STEP 4</div>
        <div class="algo-content">
          Iterate until resolved:<br/>
          <code>WHILE hasOverlap AND iteration &lt; 50: recalculate, check pairs, apply push</code>
        </div>
      </div>
      <div class="algo-section">
        <div class="algo-label">OUTPUT</div>
        <div class="algo-content">nodes[] with non-overlapping positions</div>
      </div>
    </div>

    <h3 class="deepdive-subhead">// Position Persistence</h3>
    <div class="persistence-block">
      <div class="persist-key">
        <span class="persist-label">localStorage Key:</span>
        <code>watchtower-node-positions</code>
      </div>
      <div class="persist-structure">
        <div class="persist-header">Stored Structure:</div>
        <pre><code>{`{
  "cluster-core": { "x": 450, "y": 150 },
  "cluster-servers": { "x": 450, "y": 450 },
  "cat-1": { "x": 350, "y": 120 },
  "cat-2": { "x": 550, "y": 120 },
  "external-Internet": { "x": 80, "y": 150 }
}`}</code></pre>
      </div>
      <div class="persist-triggers">
        <div class="trigger-item">
          <span class="trigger-event">Save:</span>
          <span class="trigger-when">On drag end (when <code>dragging === false</code>)</span>
        </div>
        <div class="trigger-item">
          <span class="trigger-event">Load:</span>
          <span class="trigger-when">On component mount</span>
        </div>
        <div class="trigger-item">
          <span class="trigger-event">Reset:</span>
          <span class="trigger-when">Clear localStorage, regenerate auto-layout</span>
        </div>
      </div>
    </div>

    <h3 class="deepdive-subhead">// Event Handlers</h3>
    <div class="tech-table">
      <div class="tech-row header">
        <span class="tech-label">Event</span>
        <span class="tech-value">Action</span>
      </div>
      <div class="tech-row">
        <span class="tech-label">Single click device</span>
        <span class="tech-value">selectDevice(id) → opens sidebar detail panel</span>
      </div>
      <div class="tech-row">
        <span class="tech-label">Single click cluster</span>
        <span class="tech-value">No action (expands on double-click)</span>
      </div>
      <div class="tech-row">
        <span class="tech-label">Double-click cluster</span>
        <span class="tech-value">toggleClusterExpanded(id) → expand to show devices</span>
      </div>
      <div class="tech-row">
        <span class="tech-label">Double-click device</span>
        <span class="tech-value">toggleClusterExpanded(clusterId) → collapse back</span>
      </div>
      <div class="tech-row">
        <span class="tech-label">Drag node</span>
        <span class="tech-value">Update position, save to localStorage on drop</span>
      </div>
      <div class="tech-row">
        <span class="tech-label">Scroll wheel</span>
        <span class="tech-value">Zoom in/out (0.2x - 2x range)</span>
      </div>
      <div class="tech-row">
        <span class="tech-label">Click + drag background</span>
        <span class="tech-value">Pan the canvas</span>
      </div>
    </div>

    <h3 class="deepdive-subhead">// Grid Layout for Expanded Devices</h3>
    <div class="grid-layout-block">
      <div class="grid-algo">
        <div class="grid-step">
          <span class="step-num">1</span>
          <span class="step-text">Determine grid: <code>cols = min(3, deviceCount)</code>, <code>rows = ceil(deviceCount / cols)</code></span>
        </div>
        <div class="grid-step">
          <span class="step-num">2</span>
          <span class="step-text">Spacing: <code>spacingX = 200px</code>, <code>spacingY = 120px</code></span>
        </div>
        <div class="grid-step">
          <span class="step-num">3</span>
          <span class="step-text">Center on cluster position: <code>startX = cluster.x - gridWidth / 2</code></span>
        </div>
        <div class="grid-step">
          <span class="step-num">4</span>
          <span class="step-text">Position each device: <code>x = startX + (i % cols) * spacingX</code></span>
        </div>
      </div>
      <div class="grid-example">
        <div class="grid-example-header">Example: 8 devices at cluster (450, 300)</div>
        <div class="grid-visual">
          <div class="grid-row">
            <span class="grid-cell">[0]</span>
            <span class="grid-dash">───</span>
            <span class="grid-cell">[1]</span>
            <span class="grid-dash">───</span>
            <span class="grid-cell">[2]</span>
          </div>
          <div class="grid-vline">│ &nbsp;&nbsp;&nbsp;&nbsp;&nbsp;&nbsp;&nbsp; │ &nbsp;&nbsp;&nbsp;&nbsp;&nbsp;&nbsp;&nbsp; │</div>
          <div class="grid-row">
            <span class="grid-cell">[3]</span>
            <span class="grid-dash">───</span>
            <span class="grid-cell">[4]</span>
            <span class="grid-dash">───</span>
            <span class="grid-cell">[5]</span>
          </div>
          <div class="grid-vline">│ &nbsp;&nbsp;&nbsp;&nbsp;&nbsp;&nbsp;&nbsp; │</div>
          <div class="grid-row">
            <span class="grid-cell">[6]</span>
            <span class="grid-dash">───</span>
            <span class="grid-cell">[7]</span>
          </div>
        </div>
      </div>
    </div>

    <h3 class="deepdive-subhead">// Edge Routing</h3>
    <div class="edge-routing-block">
      <p class="routing-intro">Edges dynamically connect based on cluster expansion state:</p>
      <div class="routing-rules">
        <div class="routing-rule">
          <span class="rule-condition">Both expanded:</span>
          <span class="rule-result">device → device</span>
        </div>
        <div class="routing-rule">
          <span class="rule-condition">Source expanded, target collapsed:</span>
          <span class="rule-result">device → cluster</span>
        </div>
        <div class="routing-rule">
          <span class="rule-condition">Source collapsed, target expanded:</span>
          <span class="rule-result">cluster → device</span>
        </div>
        <div class="routing-rule">
          <span class="rule-condition">Both collapsed:</span>
          <span class="rule-result">cluster → cluster</span>
        </div>
      </div>
      <p class="routing-note">Edges are deduplicated: only one edge per node pair using sorted key.</p>
    </div>

    <h3 class="deepdive-subhead">// Component Hierarchy</h3>
    <div class="component-tree">
      <div class="tree-node root">
        <span class="tree-name">TopologyCanvas.tsx</span>
        <span class="tree-desc">(wrapper with ReactFlowProvider)</span>
      </div>
      <div class="tree-children">
        <div class="tree-node">
          <span class="tree-name">TopologyCanvasInner</span>
        </div>
        <div class="tree-grandchildren">
          <div class="tree-leaf">useNocStore (topology, expandedClusters, selectDevice)</div>
          <div class="tree-leaf">savedPositionsRef (localStorage persistence)</div>
          <div class="tree-leaf">processedNodes = useMemo(() => topologyToNodes → resolveOverlaps)</div>
          <div class="tree-leaf">initialEdges = useMemo(() => topologyToEdges)</div>
          <div class="tree-node nested">
            <span class="tree-name">ReactFlow</span>
          </div>
          <div class="tree-deep">
            <div class="tree-leaf">nodeTypes: {`{ cluster, device, external, vlanGroup }`}</div>
            <div class="tree-leaf">edgeTypes: {`{ traffic, physical }`}</div>
            <div class="tree-leaf">&lt;Background /&gt; (grid pattern)</div>
            <div class="tree-leaf">&lt;Controls /&gt; (zoom buttons)</div>
            <div class="tree-leaf">&lt;Panel position="top-right"&gt; (view toggle, reset)</div>
          </div>
        </div>
      </div>
    </div>

    <h3 class="deepdive-subhead">// Implementation Details</h3>
    <div class="tech-table">
      <div class="tech-row header">
        <span class="tech-label">Aspect</span>
        <span class="tech-value">Implementation</span>
      </div>
      <div class="tech-row">
        <span class="tech-label">ReactFlow version</span>
        <span class="tech-value">@xyflow/react (v12+)</span>
      </div>
      <div class="tech-row">
        <span class="tech-label">Min/Max zoom</span>
        <span class="tech-value">0.2x - 2x</span>
      </div>
      <div class="tech-row">
        <span class="tech-label">Collision padding</span>
        <span class="tech-value">40px between nodes</span>
      </div>
      <div class="tech-row">
        <span class="tech-label">Max collision iterations</span>
        <span class="tech-value">50</span>
      </div>
      <div class="tech-row">
        <span class="tech-label">Grid columns (expanded)</span>
        <span class="tech-value">Max 3 devices per row</span>
      </div>
      <div class="tech-row">
        <span class="tech-label">Device spacing</span>
        <span class="tech-value">200px × 120px</span>
      </div>
      <div class="tech-row">
        <span class="tech-label">Cluster spacing</span>
        <span class="tech-value">450px × 350px</span>
      </div>
      <div class="tech-row">
        <span class="tech-label">Position save trigger</span>
        <span class="tech-value">On drag end (dragging === false)</span>
      </div>
      <div class="tech-row">
        <span class="tech-label">Fit view padding</span>
        <span class="tech-value">0.2 (20%)</span>
      </div>
    </div>
  </div>

  <!-- Feature Deep Dive: CDP/LLDP Link Discovery -->
  <div class="feature-deepdive" id="cdp-lldp-discovery">
    <h2>// Feature Deep Dive: CDP/LLDP Link Discovery</h2>
    <p class="deepdive-intro">
      Automatic discovery of physical network connections by polling CDP (Cisco Discovery Protocol) and LLDP
      (Link Layer Discovery Protocol) neighbor data from LibreNMS. Discovered links are merged with static
      topology.yaml connections to create a complete network map.
    </p>

    <div class="usecase-block">
      <div class="usecase-header">
        <span class="usecase-icon">🔗</span>
        <span class="usecase-title">Use Case: Automated Cable Documentation</span>
      </div>
      <p class="usecase-desc">
        Manually documenting every cable connection in a network is tedious and error-prone. CDP/LLDP discovery
        automates this: switches advertise their neighbors, LibreNMS collects this data via SNMP, and Watchtower
        polls it to build the topology graph automatically. Static connections in topology.yaml fill gaps for
        devices that don't support CDP/LLDP (firewalls, servers, APs).
      </p>
    </div>

    <h3 class="deepdive-subhead">// Architecture</h3>
    <div class="cdp-architecture">
      <div class="cdp-layer infrastructure">
        <div class="cdp-layer-header">
          <span class="cdp-layer-icon">🌐</span>
          <span class="cdp-layer-title">NETWORK INFRASTRUCTURE</span>
        </div>
        <div class="cdp-switches">
          <div class="cdp-switch">
            <span class="switch-name">cat-1</span>
            <span class="switch-type">(switch)</span>
          </div>
          <div class="cdp-arrow-bidir">◄─ CDP/LLDP ─►</div>
          <div class="cdp-switch">
            <span class="switch-name">cat-2</span>
            <span class="switch-type">(switch)</span>
          </div>
          <div class="cdp-arrow-bidir">◄─ CDP/LLDP ─►</div>
          <div class="cdp-switch more">...</div>
        </div>
        <div class="cdp-snmp-flow">
          <span class="snmp-label">SNMP polling</span>
          <span class="snmp-arrow">▼</span>
        </div>
        <div class="cdp-librenms">
          <div class="librenms-header">LibreNMS</div>
          <div class="librenms-endpoint">
            <code>/api/v0/resources/links</code>
          </div>
          <div class="librenms-returns">
            Returns: local_device_id, local_port_id, remote_device_id, remote_hostname, remote_port, protocol
          </div>
        </div>
      </div>

      <div class="cdp-flow-arrow">▼ GET /api/v0/resources/links</div>

      <div class="cdp-layer backend">
        <div class="cdp-layer-header">
          <span class="cdp-layer-icon">⚙️</span>
          <span class="cdp-layer-title">WATCHTOWER BACKEND</span>
        </div>
        <div class="cdp-backend-flow">
          <div class="backend-func">
            <span class="func-name">poll_links()</span>
            <span class="func-file">[scheduler.py]</span>
          </div>
          <div class="backend-steps">
            <div class="backend-step">1. Fetch all CDP/LLDP links from LibreNMS</div>
            <div class="backend-step">2. For each link.local_port_id: call /ports/&#123;port_id&#125; to get port name</div>
            <div class="backend-step">3. Build link_data with resolved port names</div>
            <div class="backend-step">4. Cache to Redis (CACHE_LINKS, TTL: 600s)</div>
          </div>
        </div>
        <div class="cdp-cache-block">
          <div class="cache-key">CACHE_LINKS = "watchtower:links"</div>
          <pre><code>[&#123;
  "id": 123,
  "local_device_id": 42,
  "local_port": "TenGigabitEthernet1/0/1",
  "remote_device_id": 43,
  "remote_hostname": "cat-2.corp.local",
  "remote_port": "TenGigabitEthernet1/0/1",
  "protocol": "cdp"
&#125;]</code></pre>
        </div>
      </div>

      <div class="cdp-flow-arrow">▼ get_aggregated_topology()</div>

      <div class="cdp-layer aggregator">
        <div class="cdp-layer-header">
          <span class="cdp-layer-icon">🔀</span>
          <span class="cdp-layer-title">AGGREGATOR [aggregator.py]</span>
        </div>
        <div class="aggregator-steps">
          <div class="agg-step">
            <span class="step-num">1</span>
            <div class="step-content">
              <span class="step-title">Build device ID mappings</span>
              <code>topo_to_librenms: &#123;"cat-1": 42, "cat-2": 43&#125;</code>
            </div>
          </div>
          <div class="agg-step">
            <span class="step-num">2</span>
            <div class="step-content">
              <span class="step-title">Process cached CDP/LLDP links</span>
              <span class="step-detail">Map IDs → Create Connection objects → Track seen_ports</span>
            </div>
          </div>
          <div class="agg-step">
            <span class="step-num">3</span>
            <div class="step-content">
              <span class="step-title">Add static connections from topology.yaml</span>
              <span class="step-detail">Skip if port already discovered via CDP/LLDP</span>
            </div>
          </div>
          <div class="agg-step">
            <span class="step-num">4</span>
            <div class="step-content">
              <span class="step-title">Merge into Topology.connections[]</span>
            </div>
          </div>
        </div>
      </div>

      <div class="cdp-flow-arrow">▼</div>

      <div class="cdp-layer frontend">
        <div class="cdp-layer-header">
          <span class="cdp-layer-icon">🖥️</span>
          <span class="cdp-layer-title">FRONTEND</span>
        </div>
        <div class="frontend-renders">
          <span>TopologyCanvas renders edges with port labels (Gi0/1 ↔ Gi0/2)</span>
        </div>
      </div>
    </div>

    <h3 class="deepdive-subhead">// Data Models</h3>
    <div class="cdp-models-grid">
      <div class="cdp-model-card">
        <div class="model-header">LibreNMSLink (from API)</div>
        <pre><code>class LibreNMSLink(BaseModel):
    id: int | None
    local_device_id: int
    local_port_id: int | None
    local_port: str | None
    remote_hostname: str | None
    remote_port: str | None
    remote_device_id: int | None
    protocol: str | None  # "cdp", "lldp"</code></pre>
      </div>

      <div class="cdp-model-card">
        <div class="model-header">Connection (Topology Model)</div>
        <pre><code>class Connection(BaseModel):
    id: str  # "cdp-cat-1-Te1-0-1"
    source: ConnectionEndpoint
    target: ConnectionEndpoint
    connection_type: ConnectionType
    speed: int  # Mbps
    status: ConnectionStatus
    utilization: float | None</code></pre>
      </div>
    </div>

    <h3 class="deepdive-subhead">// Port Name Resolution</h3>
    <div class="port-resolution-block">
      <div class="resolution-problem">
        <div class="problem-label">PROBLEM</div>
        <div class="problem-content">
          LibreNMS <code>/resources/links</code> returns <code>local_port_id</code> (integer)
          but NOT the actual port name like "TenGigabitEthernet1/0/1"
        </div>
      </div>
      <div class="resolution-solution">
        <div class="solution-label">SOLUTION</div>
        <div class="solution-steps">
          <div class="sol-step">1. Collect unique port_ids that need resolution</div>
          <div class="sol-step">2. For each port_id: GET /api/v0/ports/&#123;port_id&#125;</div>
          <div class="sol-step">3. Extract ifName or ifDescr</div>
          <div class="sol-step">4. Cache in port_names dict</div>
        </div>
        <div class="solution-gotcha">
          <span class="gotcha-label">GOTCHA:</span>
          LibreNMS returns <code>&#123;"port": [&#123;...&#125;]&#125;</code> (list inside "port" key)
        </div>
      </div>
    </div>

    <h3 class="deepdive-subhead">// Deduplication Logic</h3>
    <div class="dedup-block">
      <div class="dedup-scenario">
        <span class="scenario-label">SCENARIO:</span>
        CDP/LLDP discovers a link that's also defined in topology.yaml
      </div>
      <div class="dedup-solution">
        <div class="dedup-code">
          <pre><code>seen_ports: set[tuple[str, str]] = set()

# When processing CDP/LLDP link:
if local_port:
    seen_ports.add((source_topo_id, local_port))
if remote_port:
    seen_ports.add((target_topo_id, remote_port))

# When processing static connection:
if (source_device, source_port) in seen_ports:
    continue  # Skip - already discovered</code></pre>
        </div>
        <div class="dedup-result">
          <div class="result-item"><span class="result-icon">✓</span> CDP/LLDP takes priority (more accurate)</div>
          <div class="result-item"><span class="result-icon">✓</span> Static connections fill gaps</div>
          <div class="result-item"><span class="result-icon">✓</span> No duplicate edges in topology</div>
        </div>
      </div>
    </div>

    <h3 class="deepdive-subhead">// Static Connection Merging</h3>
    <div class="static-merge-block">
      <div class="non-cdp-devices">
        <div class="non-cdp-header">Devices that don't run CDP/LLDP:</div>
        <div class="non-cdp-list">
          <span class="non-cdp-item">Firewalls (Palo Alto, Fortinet)</span>
          <span class="non-cdp-item">Servers (Linux, Windows)</span>
          <span class="non-cdp-item">Access Points (some models)</span>
          <span class="non-cdp-item">IoT devices</span>
          <span class="non-cdp-item">"Dumb" unmanaged switches</span>
        </div>
      </div>
      <div class="static-yaml-example">
        <div class="yaml-header">topology.yaml example:</div>
        <pre><code>connections:
  - id: "fw-to-core"
    source:
      device: pa-3410
      port: ethernet1/1
    target:
      device: cat-1
      port: TenGigabitEthernet1/0/48
    connection_type: uplink
    speed: 10000</code></pre>
      </div>
      <div class="connection-types">
        <div class="conn-types-header">Connection Types:</div>
        <div class="conn-type-grid">
          <span class="conn-type"><code>trunk</code> Inter-switch links (CDP/LLDP default)</span>
          <span class="conn-type"><code>access</code> End-device connections</span>
          <span class="conn-type"><code>uplink</code> Upstream connections</span>
          <span class="conn-type"><code>stack</code> Stacking cables</span>
          <span class="conn-type"><code>peer</code> HA/cluster peer links</span>
          <span class="conn-type"><code>management</code> Management network</span>
        </div>
      </div>
    </div>

    <h3 class="deepdive-subhead">// Connection Status Derivation</h3>
    <div class="status-derivation">
      <div class="derivation-note">Status is derived from device status, not link state</div>
      <div class="derivation-algo">
        <pre><code>source_device = devices.get(source_topo_id)
target_device = devices.get(target_topo_id)

IF source.status == DOWN OR target.status == DOWN:
    conn_status = DOWN
ELIF source.status == UNKNOWN OR target.status == UNKNOWN:
    conn_status = UNKNOWN
ELSE:
    conn_status = UP</code></pre>
      </div>
      <div class="derivation-why">
        <span class="why-label">Why not use link state?</span>
        <span class="why-reason">CDP/LLDP is neighbor discovery, not link monitoring. Device status is more reliable.</span>
      </div>
    </div>

    <h3 class="deepdive-subhead">// Component Structure</h3>
    <div class="cdp-component-tree">
      <div class="comp-dir">backend/app/polling/</div>
      <div class="comp-files">
        <div class="comp-file">
          <span class="file-name">librenms.py</span>
          <div class="file-contents">
            <span>LibreNMSLink (Pydantic model)</span>
            <span>get_all_links() → list[LibreNMSLink]</span>
            <span>get_port(port_id) → LibreNMSPort</span>
          </div>
        </div>
        <div class="comp-file">
          <span class="file-name">scheduler.py</span>
          <div class="file-contents">
            <span>CACHE_LINKS = "watchtower:links"</span>
            <span>poll_links() - Fetch, resolve ports, cache</span>
            <span>Scheduler: every 300s, immediate on startup</span>
          </div>
        </div>
        <div class="comp-file">
          <span class="file-name">aggregator.py</span>
          <div class="file-contents">
            <span>get_aggregated_topology()</span>
            <span>├─ Load CACHE_LINKS from Redis</span>
            <span>├─ Map LibreNMS IDs → topology IDs</span>
            <span>├─ Create Connection objects</span>
            <span>├─ Track seen_ports for deduplication</span>
            <span>└─ Add static connections from topology.yaml</span>
          </div>
        </div>
      </div>
    </div>

    <h3 class="deepdive-subhead">// LibreNMS API Endpoints</h3>
    <div class="api-endpoints-grid">
      <div class="api-endpoint-card">
        <div class="endpoint-header">GET /api/v0/resources/links</div>
        <div class="endpoint-desc">Returns all CDP/LLDP discovered neighbors</div>
        <pre><code>&#123;
  "links": [&#123;
    "id": 123,
    "local_device_id": 42,
    "local_port_id": 1001,
    "remote_device_id": 43,
    "remote_hostname": "cat-2.corp.local",
    "remote_port": "Te1/0/1",
    "protocol": "cdp"
  &#125;]
&#125;</code></pre>
      </div>
      <div class="api-endpoint-card">
        <div class="endpoint-header">GET /api/v0/ports/&#123;port_id&#125;</div>
        <div class="endpoint-desc">Returns port details including interface name</div>
        <pre><code>&#123;
  "port": [&#123;
    "port_id": 1001,
    "device_id": 42,
    "ifName": "TenGigabitEthernet1/0/1",
    "ifDescr": "TenGigabitEthernet1/0/1",
    "ifAlias": "Uplink to cat-2",
    "ifOperStatus": "up"
  &#125;]
&#125;</code></pre>
      </div>
    </div>

    <h3 class="deepdive-subhead">// Implementation Details</h3>
    <div class="tech-table">
      <div class="tech-row header">
        <span class="tech-label">Aspect</span>
        <span class="tech-value">Implementation</span>
      </div>
      <div class="tech-row">
        <span class="tech-label">Discovery protocols</span>
        <span class="tech-value">CDP (Cisco), LLDP (IEEE 802.1AB)</span>
      </div>
      <div class="tech-row">
        <span class="tech-label">Poll interval</span>
        <span class="tech-value">300 seconds (5 minutes)</span>
      </div>
      <div class="tech-row">
        <span class="tech-label">Cache TTL</span>
        <span class="tech-value">600 seconds (10 minutes)</span>
      </div>
      <div class="tech-row">
        <span class="tech-label">Cache key</span>
        <span class="tech-value">watchtower:links</span>
      </div>
      <div class="tech-row">
        <span class="tech-label">Startup behavior</span>
        <span class="tech-value">Immediate poll via next_run_time=dt.now()</span>
      </div>
      <div class="tech-row">
        <span class="tech-label">Port resolution</span>
        <span class="tech-value">Separate API call per unique port_id</span>
      </div>
      <div class="tech-row">
        <span class="tech-label">Priority</span>
        <span class="tech-value">CDP/LLDP over static topology.yaml</span>
      </div>
      <div class="tech-row">
        <span class="tech-label">Default connection type</span>
        <span class="tech-value">TRUNK for discovered links</span>
      </div>
      <div class="tech-row">
        <span class="tech-label">Default speed</span>
        <span class="tech-value">10000 Mbps for discovered links</span>
      </div>
    </div>

    <h3 class="deepdive-subhead">// Limitations</h3>
    <div class="limitations-block">
      <div class="limitation-item">
        <span class="limit-icon">⚠️</span>
        <div class="limit-content">
          <span class="limit-title">Devices not discovered</span>
          <span class="limit-desc">Firewalls, servers, APs, IoT, unmanaged switches don't run CDP/LLDP</span>
          <span class="limit-workaround">Workaround: Define in topology.yaml</span>
        </div>
      </div>
      <div class="limitation-item">
        <span class="limit-icon">⚠️</span>
        <div class="limit-content">
          <span class="limit-title">One-way discovery</span>
          <span class="limit-desc">CDP/LLDP may show link on one device but not the other</span>
          <span class="limit-workaround">Workaround: Static connections fill gaps</span>
        </div>
      </div>
      <div class="limitation-item">
        <span class="limit-icon">⚠️</span>
        <div class="limit-content">
          <span class="limit-title">Port name variations</span>
          <span class="limit-desc">Cisco uses "TenGigabitEthernet1/0/1", "Te1/0/1", "tengige1/0/1"</span>
          <span class="limit-workaround">Frontend may normalize for display</span>
        </div>
      </div>
    </div>
  </div>

  <!-- Feature Deep Dive: Speedtest Widget -->
  <div class="feature-deepdive" id="speedtest">
    <h2>// Feature Deep Dive: Speedtest Widget</h2>
    <p class="deepdive-intro">
      This feature monitors internet connectivity health by running periodic Ookla speed tests and displaying
      results in a real-time dashboard widget. It also affects the visual status of external WAN links on the
      topology map.
    </p>

    <div class="usecase-block">
      <div class="usecase-header">
        <span class="usecase-icon">🌐</span>
        <span class="usecase-title">Use Case: WAN Health Monitoring</span>
      </div>
      <p class="usecase-desc">
        Provides at-a-glance WAN health visibility for NOC operators. Instead of manually running speed tests
        when users report "slow internet," the dashboard continuously monitors and logs connection quality.
        Historical CSV data enables capacity planning and ISP SLA verification.
      </p>
    </div>

    <h3 class="deepdive-subhead">// How It Works</h3>

    <div class="deepdive-flow">
      <!-- Config -->
      <div class="flow-block config">
        <div class="block-header">
          <span class="block-icon">⚙️</span>
          <span class="block-title">CONFIG (config.yaml)</span>
        </div>
        <div class="block-code">
          <pre><code>speedtest:
  enabled: true
  interval_minutes: 5           # Run test every 5 minutes
  server_id: null               # null = auto-select closest
  interface: "eth0"             # Specific NIC (optional)
  thresholds:
    degraded_download_mbps: 200 # Yellow if below
    degraded_ping_ms: 50        # Yellow if above
    down_download_mbps: 10      # Red if below
  logging:
    enabled: true
    path: "/opt/watchtower/data/speedtest.csv"</code></pre>
        </div>
      </div>

      <div class="flow-arrow-down">▼</div>

      <!-- Scheduler -->
      <div class="flow-block scheduler-block">
        <div class="block-header">
          <span class="block-icon">⏱️</span>
          <span class="block-title">SCHEDULER (APScheduler)</span>
        </div>
        <div class="block-steps">
          <div class="backend-step"><code>poll_speedtest()</code> job runs at configured interval</div>
          <div class="backend-step">Calls <code>run_speedtest()</code> async function</div>
        </div>
      </div>

      <div class="flow-arrow-down">▼</div>

      <!-- Backend -->
      <div class="flow-block backend">
        <div class="block-header">
          <span class="block-icon">🐍</span>
          <span class="block-title">BACKEND (speedtest.py)</span>
        </div>
        <div class="block-steps">
          <div class="backend-step"><span class="step-num">1</span> Build command: <code>/usr/local/bin/speedtest --format=json --accept-license --accept-gdpr</code></div>
          <div class="backend-step"><span class="step-num">2</span> Execute via asyncio subprocess (no shell) with 2-minute timeout</div>
          <div class="backend-step"><span class="step-num">3</span> Parse JSON: download/upload bandwidth (bytes/sec → Mbps), ping, jitter, packet loss, server info</div>
          <div class="backend-step"><span class="step-num">4</span> Create SpeedtestResult dataclass</div>
          <div class="backend-step"><span class="step-num">5</span> Cache result in Redis (1 hour TTL)</div>
          <div class="backend-step"><span class="step-num">6</span> Append to CSV file for historical logging</div>
          <div class="backend-step"><span class="step-num">7</span> Broadcast via WebSocket to all connected clients</div>
        </div>
      </div>

      <div class="flow-arrow-down">▼</div>

      <!-- API Endpoints -->
      <div class="flow-block api">
        <div class="block-header">
          <span class="block-icon">📡</span>
          <span class="block-title">API ENDPOINTS</span>
        </div>
        <div class="api-endpoints-list">
          <div class="endpoint-item">
            <code>GET /api/speedtest</code>
            <span class="endpoint-desc">Returns cached result with status indicator</span>
          </div>
          <div class="endpoint-item">
            <code>POST /api/speedtest/trigger</code>
            <span class="endpoint-desc">Manual test trigger (60-second cooldown enforced)</span>
          </div>
          <div class="endpoint-item">
            <code>GET /api/speedtest/export</code>
            <span class="endpoint-desc">Download CSV history file</span>
          </div>
        </div>
      </div>

      <div class="flow-arrow-down">▼</div>

      <!-- API Response -->
      <div class="flow-block api">
        <div class="block-header">
          <span class="block-icon">📋</span>
          <span class="block-title">API RESPONSE (GET /api/speedtest)</span>
        </div>
        <div class="block-code">
          <pre><code>{`{
  "timestamp": "2026-01-27T14:30:00Z",
  "download_mbps": 487.23,
  "upload_mbps": 52.41,
  "ping_ms": 12.3,
  "jitter_ms": 2.1,
  "packet_loss_pct": 0,
  "server_id": 12345,
  "server_name": "Spectrum",
  "server_location": "Tampa, FL",
  "result_url": "https://www.speedtest.net/result/xxxxx",
  "status": "success",
  "indicator": "normal"    // Derived from thresholds
}`}</code></pre>
        </div>
      </div>

      <div class="flow-arrow-down">▼</div>

      <!-- Frontend Widget -->
      <div class="flow-block widget">
        <div class="block-header">
          <span class="block-icon">📊</span>
          <span class="block-title">FRONTEND (SpeedtestWidget.tsx)</span>
        </div>
        <div class="speedtest-widget-mockup">
          <div class="mockup-header">
            <span class="mockup-icon">🌐</span>
            <span class="mockup-title">Internet Speed</span>
            <span class="mockup-status ok">●</span>
            <span class="mockup-collapse">▼</span>
          </div>
          <div class="mockup-body">
            <div class="speedtest-stats">
              <div class="speed-stat">
                <span class="speed-arrow down">↓</span>
                <span class="speed-value">487.2</span>
                <span class="speed-unit">Mbps Down</span>
              </div>
              <div class="speed-stat">
                <span class="speed-arrow up">↑</span>
                <span class="speed-value">52.4</span>
                <span class="speed-unit">Mbps Up</span>
              </div>
            </div>
            <div class="speedtest-latency">
              <span>12.3ms ping</span>
              <span class="latency-sep">|</span>
              <span>2.1ms jitter</span>
            </div>
            <div class="speedtest-server">Spectrum (Tampa, FL)</div>
            <div class="speedtest-time">Last test: 3m ago</div>
            <div class="speedtest-actions">
              <button class="speedtest-btn run">Run Test</button>
              <button class="speedtest-btn export">📥</button>
            </div>
            <div class="speedtest-link">View detailed result ↗</div>
          </div>
        </div>
        <div class="widget-states">
          <span class="widget-state"><strong>loading</strong> → Skeleton placeholder</span>
          <span class="widget-state"><strong>no_data</strong> → "Run Test" button only</span>
          <span class="widget-state"><strong>testing</strong> → Spinner animation</span>
          <span class="widget-state"><strong>ready</strong> → Full result display</span>
        </div>
      </div>
    </div>

    <h3 class="deepdive-subhead">// Status Indicator Logic</h3>
    <p class="section-desc">The widget displays a colored status dot based on configurable thresholds:</p>

    <div class="status-table">
      <div class="status-row header">
        <span class="status-col">Status</span>
        <span class="status-col">Color</span>
        <span class="status-col">Condition</span>
      </div>
      <div class="status-row normal">
        <span class="status-col"><code>normal</code></span>
        <span class="status-col"><span class="status-dot green">●</span> Green</span>
        <span class="status-col">Download ≥ 200 Mbps AND ping ≤ 50ms</span>
      </div>
      <div class="status-row degraded">
        <span class="status-col"><code>degraded</code></span>
        <span class="status-col"><span class="status-dot yellow">●</span> Yellow</span>
        <span class="status-col">Download &lt; 200 Mbps OR ping &gt; 50ms</span>
      </div>
      <div class="status-row down">
        <span class="status-col"><code>down</code></span>
        <span class="status-col"><span class="status-dot red">●</span> Red</span>
        <span class="status-col">Download &lt; 10 Mbps OR test error</span>
      </div>
    </div>

    <div class="code-snippet">
      <span class="snippet-label">Status Logic (Python)</span>
      <pre><code>def get_status(result, thresholds):
    if result.status.startswith("error"):
        return "down"

    if download &lt; 10:                    # Critical threshold
        return "down"
    if download &lt; 200 or ping &gt; 50:      # Warning thresholds
        return "degraded"
    return "normal"</code></pre>
    </div>

    <h3 class="deepdive-subhead">// External Link Coloring</h3>
    <p class="section-desc">The speedtest status also affects the topology visualization:</p>

    <div class="topology-example">
      <div class="topo-header">Topology Canvas</div>
      <div class="topo-visual">
        <div class="topo-node firewall">Firewall</div>
        <div class="topo-link">
          <div class="link-line"></div>
          <span class="link-label">WAN Link</span>
        </div>
        <div class="topo-node isp">ISP Router</div>
      </div>
      <div class="topo-legend">
        <div class="legend-item"><span class="legend-line green"></span> normal → Green animated link</div>
        <div class="legend-item"><span class="legend-line yellow"></span> degraded → Yellow animated link</div>
        <div class="legend-item"><span class="legend-line red"></span> down → Red static link</div>
      </div>
    </div>

    <h3 class="deepdive-subhead">// Data Flow</h3>
    <div class="numbered-flow">
      <div class="flow-item">
        <div class="flow-num">1</div>
        <div class="flow-content">
          <span class="flow-title">Scheduled Test (every 5 minutes)</span>
          <span class="flow-desc">APScheduler triggers poll_speedtest() → Runs Ookla CLI → Parses output → Caches in Redis → Logs to CSV → Broadcasts via WebSocket</span>
        </div>
      </div>
      <div class="flow-item">
        <div class="flow-num">2</div>
        <div class="flow-content">
          <span class="flow-title">Manual Test (user-triggered)</span>
          <span class="flow-desc">Frontend POSTs to /api/speedtest/trigger → Backend checks 60s cooldown → Runs test in background → Result arrives via WebSocket</span>
        </div>
      </div>
      <div class="flow-item">
        <div class="flow-num">3</div>
        <div class="flow-content">
          <span class="flow-title">Page Load</span>
          <span class="flow-desc">Frontend fetches GET /api/speedtest for cached result → Displays immediately → Subscribes to WebSocket for live updates</span>
        </div>
      </div>
      <div class="flow-item">
        <div class="flow-num">4</div>
        <div class="flow-content">
          <span class="flow-title">CSV Export</span>
          <span class="flow-desc">User clicks export → Backend returns FileResponse → Filename: speedtest_history_2026-01-27.csv</span>
        </div>
      </div>
    </div>

    <h3 class="deepdive-subhead">// CSV Log Format</h3>
    <div class="csv-block">
      <span class="csv-label">speedtest.csv</span>
      <pre><code>timestamp,download_mbps,upload_mbps,ping_ms,jitter_ms,packet_loss_pct,server_id,server_name,server_location,result_url,status
2026-01-27T14:30:00Z,487.23,52.41,12.3,2.1,0,12345,Spectrum,"Tampa, FL",https://speedtest.net/result/...,success
2026-01-27T14:35:00Z,491.87,51.22,11.8,1.9,0,12345,Spectrum,"Tampa, FL",https://speedtest.net/result/...,success</code></pre>
    </div>

    <h3 class="deepdive-subhead">// Technical Details</h3>
    <div class="tech-table">
      <div class="tech-row">
        <span class="tech-label">CLI tool</span>
        <span class="tech-value">Ookla Speedtest CLI (/usr/local/bin/speedtest)</span>
      </div>
      <div class="tech-row">
        <span class="tech-label">Execution</span>
        <span class="tech-value">asyncio subprocess - no shell injection risk</span>
      </div>
      <div class="tech-row">
        <span class="tech-label">Timeout</span>
        <span class="tech-value">2 minutes (handles hung tests)</span>
      </div>
      <div class="tech-row">
        <span class="tech-label">Output format</span>
        <span class="tech-value">JSON (--format=json)</span>
      </div>
      <div class="tech-row">
        <span class="tech-label">Conversion</span>
        <span class="tech-value">(bytes/sec × 8) / 1,000,000 = Mbps</span>
      </div>
      <div class="tech-row">
        <span class="tech-label">Cache TTL</span>
        <span class="tech-value">1 hour in Redis</span>
      </div>
      <div class="tech-row">
        <span class="tech-label">Cooldown</span>
        <span class="tech-value">60 seconds between manual triggers</span>
      </div>
      <div class="tech-row">
        <span class="tech-label">Interface binding</span>
        <span class="tech-value">Optional --interface flag for multi-NIC hosts</span>
      </div>
    </div>

    <h3 class="deepdive-subhead">// Why This Approach</h3>
    <div class="approach-grid">
      <div class="approach-item">
        <span class="approach-icon">🏆</span>
        <div class="approach-content">
          <span class="approach-title">Ookla CLI</span>
          <span class="approach-desc">Industry standard, trusted by ISPs, consistent results</span>
        </div>
      </div>
      <div class="approach-item">
        <span class="approach-icon">⚡</span>
        <div class="approach-content">
          <span class="approach-title">Async subprocess</span>
          <span class="approach-desc">Non-blocking, doesn't tie up web server threads</span>
        </div>
      </div>
      <div class="approach-item">
        <span class="approach-icon">📡</span>
        <div class="approach-content">
          <span class="approach-title">WebSocket push</span>
          <span class="approach-desc">Instant updates without polling overhead</span>
        </div>
      </div>
      <div class="approach-item">
        <span class="approach-icon">🛡️</span>
        <div class="approach-content">
          <span class="approach-title">Cooldown enforcement</span>
          <span class="approach-desc">Prevents API abuse and bandwidth waste</span>
        </div>
      </div>
      <div class="approach-item">
        <span class="approach-icon">📊</span>
        <div class="approach-content">
          <span class="approach-title">CSV logging</span>
          <span class="approach-desc">Long-term trending without database complexity</span>
        </div>
      </div>
      <div class="approach-item">
        <span class="approach-icon">🎛️</span>
        <div class="approach-content">
          <span class="approach-title">Configurable thresholds</span>
          <span class="approach-desc">Adapts to different connection speeds (fiber vs cable vs DSL)</span>
        </div>
      </div>
    </div>
  </div>

  <!-- Feature Deep Dive: Port Group Monitoring -->
  <div class="feature-deepdive" id="port-groups">
    <h2>// Feature Deep Dive: Port Group Monitoring</h2>
    <p class="deepdive-intro">
      This feature aggregates real-time traffic across multiple switch ports that share a common SNMP description pattern.
      Built to monitor computer labs where dozens of workstations connect through various switches but need to be
      viewed as a single logical group.
    </p>

    <div class="usecase-block">
      <div class="usecase-header">
        <span class="usecase-icon">🎬</span>
        <span class="usecase-title">Use Case: Digital Media Labs</span>
      </div>
      <p class="usecase-desc">
        The Digital Media Mac Pro Lab has ~140 workstation ports spread across multiple access switches. Each port
        has an SNMP description (ifAlias) containing "digital-media" (the department identifier). Instead of monitoring
        140 individual ports, this feature sums all their traffic into a single dashboard widget showing aggregate
        bandwidth consumption.
      </p>
    </div>

    <h3 class="deepdive-subhead">// How It Works</h3>

    <div class="deepdive-flow">
      <!-- Config -->
      <div class="flow-block config">
        <div class="block-header">
          <span class="block-icon">⚙️</span>
          <span class="block-title">CONFIG (config.yaml)</span>
        </div>
        <div class="block-code">
          <pre><code>port_groups:
  - name: "Digital Media Labs"
    description: "Digital Media Mac Pro Lab"
    match_alias: "digital-media"  # Pattern to match
    thresholds:
      warning_mbps: 500         # Yellow threshold
      critical_mbps: 800        # Red threshold
    logging:
      enabled: true
      path: "/opt/watchtower/data/port_groups.csv"</code></pre>
        </div>
      </div>

      <div class="flow-arrow-down">▼</div>

      <!-- Backend -->
      <div class="flow-block backend">
        <div class="block-header">
          <span class="block-icon">🐍</span>
          <span class="block-title">BACKEND (portgroups.py)</span>
        </div>
        <div class="block-steps">
          <div class="backend-step"><span class="step-num">1</span> Fetch ALL ports from LibreNMS API</div>
          <div class="backend-step"><span class="step-num">2</span> Filter ports where ifAlias contains "digital-media" (case-insensitive) → ~140 ports</div>
          <div class="backend-step"><span class="step-num">3</span> Filter to only "up" ports (ifOperStatus == "up")</div>
          <div class="backend-step"><span class="step-num">4</span> Sum traffic rates: ifInOctets_rate + ifOutOctets_rate (bytes/sec)</div>
          <div class="backend-step"><span class="step-num">5</span> Convert: (bytes/sec × 8) / 1,000,000 = Mbps</div>
          <div class="backend-step"><span class="step-num">6</span> Determine status vs thresholds: &lt;500 = ok, ≥500 = warning, ≥800 = critical</div>
        </div>
      </div>

      <div class="flow-arrow-down">▼</div>

      <!-- API Response -->
      <div class="flow-block api">
        <div class="block-header">
          <span class="block-icon">📡</span>
          <span class="block-title">API RESPONSE (GET /api/port-groups)</span>
        </div>
        <div class="block-code">
          <pre><code>{`{
  "name": "Digital Media Labs",
  "description": "Digital Media Mac Pro Lab",
  "port_count": 140,           // Total matching ports
  "active_port_count": 87,     // Ports currently up
  "in_mbps": 360.0,            // Inbound Mbps
  "out_mbps": 96.0,            // Outbound Mbps
  "total_mbps": 456.0,         // Combined
  "status": "ok",              // Based on thresholds
  "thresholds": { "warning_mbps": 500, "critical_mbps": 800 }
}`}</code></pre>
        </div>
      </div>

      <div class="flow-arrow-down">▼</div>

      <!-- Frontend Widget -->
      <div class="flow-block widget">
        <div class="block-header">
          <span class="block-icon">📊</span>
          <span class="block-title">FRONTEND (PortGroupWidget.tsx)</span>
        </div>
        <div class="widget-mockup">
          <div class="mockup-header">
            <span class="mockup-icon">🔲</span>
            <span class="mockup-title">Digital Media Labs</span>
            <span class="mockup-status ok">●</span>
          </div>
          <div class="mockup-body">
            <div class="mockup-desc">Digital Media Mac Pro Lab</div>
            <div class="mockup-stats">
              <div class="mockup-stat">
                <span class="stat-arrow down">↓</span>
                <span class="stat-value">360.0</span>
                <span class="stat-unit">Mbps In</span>
              </div>
              <div class="mockup-stat">
                <span class="stat-arrow up">↑</span>
                <span class="stat-value">96.0</span>
                <span class="stat-unit">Mbps Out</span>
              </div>
            </div>
            <div class="mockup-total">Total: 456.0 Mbps <span class="mockup-pct">57%</span></div>
            <div class="mockup-bar">
              <div class="bar-fill" style="width: 57%"></div>
              <div class="bar-markers">
                <span class="marker" style="left: 0">0</span>
                <span class="marker warning" style="left: 62.5%">500</span>
                <span class="marker critical" style="left: 100%">800</span>
              </div>
            </div>
            <div class="mockup-ports">87 of 140 ports active</div>
            <div class="mockup-export">📥 Export CSV</div>
          </div>
        </div>
      </div>
    </div>

    <h3 class="deepdive-subhead">// Technical Details</h3>
    <div class="tech-table">
      <div class="tech-row">
        <span class="tech-label">Pattern matching</span>
        <span class="tech-value">Case-insensitive substring match on ifAlias field</span>
      </div>
      <div class="tech-row">
        <span class="tech-label">Traffic source</span>
        <span class="tech-value">LibreNMS ifInOctets_rate / ifOutOctets_rate (SNMP counters)</span>
      </div>
      <div class="tech-row">
        <span class="tech-label">Only active ports</span>
        <span class="tech-value">Filters ifOperStatus == "up" before summing</span>
      </div>
      <div class="tech-row">
        <span class="tech-label">Conversion</span>
        <span class="tech-value">(bytes/sec × 8) / 1,000,000 = Mbps</span>
      </div>
      <div class="tech-row">
        <span class="tech-label">Polling interval</span>
        <span class="tech-value">Widget fetches every 60s (matches LibreNMS interface polling)</span>
      </div>
      <div class="tech-row">
        <span class="tech-label">Thresholds</span>
        <span class="tech-value">Configurable per-group warning/critical values in Mbps</span>
      </div>
      <div class="tech-row">
        <span class="tech-label">Persistence</span>
        <span class="tech-value">CSV logging for historical analysis and capacity planning</span>
      </div>
    </div>

    <h3 class="deepdive-subhead">// Why This Approach</h3>
    <div class="approach-grid">
      <div class="approach-item">
        <span class="approach-icon">📡</span>
        <div class="approach-content">
          <span class="approach-title">SNMP-based</span>
          <span class="approach-desc">Uses existing LibreNMS infrastructure, no agent installation needed</span>
        </div>
      </div>
      <div class="approach-item">
        <span class="approach-icon">🔤</span>
        <div class="approach-content">
          <span class="approach-title">Pattern matching</span>
          <span class="approach-desc">Network admins already use naming conventions in port descriptions</span>
        </div>
      </div>
      <div class="approach-item">
        <span class="approach-icon">⚡</span>
        <div class="approach-content">
          <span class="approach-title">Real-time</span>
          <span class="approach-desc">60-second granularity matches SNMP polling cycle</span>
        </div>
      </div>
      <div class="approach-item">
        <span class="approach-icon">📈</span>
        <div class="approach-content">
          <span class="approach-title">Scalable</span>
          <span class="approach-desc">Works whether a lab has 10 ports or 500 ports</span>
        </div>
      </div>
      <div class="approach-item">
        <span class="approach-icon">📊</span>
        <div class="approach-content">
          <span class="approach-title">Exportable</span>
          <span class="approach-desc">CSV export enables capacity planning spreadsheets and reports</span>
        </div>
      </div>
    </div>
  </div>

  <!-- Feature Deep Dive: ISP vs Network Bottleneck -->
  <div class="feature-deepdive">
    <h2>// Feature Deep Dive: Diagnosing Slowdowns</h2>
    <p class="deepdive-intro">
      When users report "the internet is slow," the question is: is it the ISP or something internal?
      Both the Speedtest Widget and Port Group Monitoring export CSV logs. Comparing these two data sources
      pinpoints whether the bottleneck is upstream (ISP) or within the campus network.
    </p>

    <h3 class="deepdive-subhead">// The Diagnostic Question</h3>
    <div class="diagnostic-scenarios">
      <div class="scenario-card isp">
        <div class="scenario-header">
          <span class="scenario-icon">🌐</span>
          <span class="scenario-label">ISP Problem</span>
        </div>
        <div class="scenario-indicators">
          <div class="indicator bad">
            <span class="indicator-icon">📶</span>
            <span class="indicator-metric">Speedtest</span>
            <span class="indicator-value">Slow</span>
          </div>
          <div class="indicator good">
            <span class="indicator-icon">📊</span>
            <span class="indicator-metric">Lab Traffic</span>
            <span class="indicator-value">Normal/Low</span>
          </div>
        </div>
        <p class="scenario-conclusion">
          WAN link is degraded but internal network has capacity. Problem is with the upstream provider.
        </p>
      </div>

      <div class="scenario-card internal">
        <div class="scenario-header">
          <span class="scenario-icon">🔀</span>
          <span class="scenario-label">Internal Bottleneck</span>
        </div>
        <div class="scenario-indicators">
          <div class="indicator good">
            <span class="indicator-icon">📶</span>
            <span class="indicator-metric">Speedtest</span>
            <span class="indicator-value">Normal</span>
          </div>
          <div class="indicator bad">
            <span class="indicator-icon">📊</span>
            <span class="indicator-metric">Lab Traffic</span>
            <span class="indicator-value">Near Threshold</span>
          </div>
        </div>
        <p class="scenario-conclusion">
          ISP link is healthy but lab ports are saturated. Congestion is on the access or distribution layer.
        </p>
      </div>
    </div>

    <h3 class="deepdive-subhead">// How It Works</h3>
    <div class="correlation-flow">
      <div class="corr-step">
        <div class="corr-num">1</div>
        <div class="corr-content">
          <span class="corr-title">Collect Speedtest CSV</span>
          <span class="corr-desc">Scheduled tests (every 5-15 min) log timestamp, download Mbps, upload Mbps, latency</span>
          <code class="corr-path">/opt/watchtower/data/speedtest.csv</code>
        </div>
      </div>
      <div class="corr-step">
        <div class="corr-num">2</div>
        <div class="corr-content">
          <span class="corr-title">Collect Port Group CSV</span>
          <span class="corr-desc">Polled traffic (every 60s) logs timestamp, group name, active ports, in/out Mbps</span>
          <code class="corr-path">/opt/watchtower/data/port_groups.csv</code>
        </div>
      </div>
      <div class="corr-step">
        <div class="corr-num">3</div>
        <div class="corr-content">
          <span class="corr-title">Correlate by Timestamp</span>
          <span class="corr-desc">Join both CSVs on timestamp (within tolerance) to see WAN health alongside lab traffic</span>
        </div>
      </div>
      <div class="corr-step">
        <div class="corr-num">4</div>
        <div class="corr-content">
          <span class="corr-title">Identify Pattern</span>
          <span class="corr-desc">Slowdowns with low internal traffic → ISP. Slowdowns with high internal traffic → congestion.</span>
        </div>
      </div>
    </div>

    <h3 class="deepdive-subhead">// Example Analysis</h3>
    <div class="csv-example">
      <div class="csv-block">
        <span class="csv-label">speedtest.csv</span>
        <pre><code>timestamp,download_mbps,upload_mbps,latency_ms
2026-01-27T14:00:00,850.2,410.5,12
2026-01-27T14:15:00,180.4,95.2,45    ← degraded
2026-01-27T14:30:00,175.8,88.1,52    ← degraded
2026-01-27T14:45:00,820.1,405.3,14</code></pre>
      </div>
      <div class="csv-block">
        <span class="csv-label">port_groups.csv (Digital Media Labs)</span>
        <pre><code>timestamp,group,active_ports,in_mbps,out_mbps,total_mbps
2026-01-27T14:00:00,Digital Media Labs,87,360.0,96.0,456.0
2026-01-27T14:15:00,Digital Media Labs,85,340.2,88.4,428.6
2026-01-27T14:30:00,Digital Media Labs,82,310.5,82.1,392.6
2026-01-27T14:45:00,Digital Media Labs,88,375.2,102.3,477.5</code></pre>
      </div>
      <div class="analysis-box">
        <span class="analysis-icon">🔍</span>
        <div class="analysis-content">
          <span class="analysis-title">Conclusion: ISP Issue</span>
          <p class="analysis-desc">
            At 14:15 and 14:30, speedtest dropped from ~850 Mbps to ~180 Mbps while lab traffic stayed
            consistent around 400-430 Mbps. The labs weren't saturating anything; the WAN link was degraded.
            Time to call the ISP.
          </p>
        </div>
      </div>
    </div>

    <h3 class="deepdive-subhead">// Why This Matters</h3>
    <div class="approach-grid">
      <div class="approach-item">
        <span class="approach-icon">🎯</span>
        <div class="approach-content">
          <span class="approach-title">Accurate Diagnosis</span>
          <span class="approach-desc">Eliminates guesswork about where the problem actually is</span>
        </div>
      </div>
      <div class="approach-item">
        <span class="approach-icon">📞</span>
        <div class="approach-content">
          <span class="approach-title">ISP Accountability</span>
          <span class="approach-desc">CSV logs provide evidence when escalating to the provider</span>
        </div>
      </div>
      <div class="approach-item">
        <span class="approach-icon">📈</span>
        <div class="approach-content">
          <span class="approach-title">Capacity Planning</span>
          <span class="approach-desc">Historical data shows when internal upgrades are actually needed</span>
        </div>
      </div>
      <div class="approach-item">
        <span class="approach-icon">⏱️</span>
        <div class="approach-content">
          <span class="approach-title">Faster Resolution</span>
          <span class="approach-desc">Skip the "have you tried rebooting" phase with concrete data</span>
        </div>
      </div>
    </div>
  </div>

  <!-- Feature Deep Dive: Port Search -->
  <div class="feature-deepdive" id="port-search">
    <h2>// Feature Deep Dive: Port Search</h2>
    <p class="deepdive-intro">
      This feature allows NOC operators to quickly find switch ports across the entire network by searching
      SNMP port descriptions. Instead of logging into individual switches, users can search for devices like
      "printer", "podium", or "voip" and instantly see all matching ports with their status and traffic.
    </p>

    <div class="usecase-block">
      <div class="usecase-header">
        <span class="usecase-icon">🔍</span>
        <span class="usecase-title">Use Case: Device Location</span>
      </div>
      <p class="usecase-desc">
        Network admins label switch ports with descriptions (SNMP ifAlias) like "Conference Room Podium" or
        "Break Room Printer". When troubleshooting, they need to quickly find which switch and port a device
        is connected to. This feature searches all ports across all managed switches in seconds.
      </p>
    </div>

    <h3 class="deepdive-subhead">// How It Works</h3>

    <div class="deepdive-flow">
      <!-- Frontend Input -->
      <div class="flow-block widget">
        <div class="block-header">
          <span class="block-icon">🔍</span>
          <span class="block-title">FRONTEND (PortSearchWidget.tsx)</span>
        </div>
        <div class="port-search-mockup">
          <div class="search-header">
            <span class="search-icon">🔍</span>
            <span class="search-title">Port Search</span>
            <span class="mockup-collapse">▼</span>
          </div>
          <div class="search-body">
            <div class="search-input-row">
              <input type="text" class="search-input" placeholder="printer" readonly />
              <button class="search-btn">Search</button>
            </div>
            <div class="status-filters">
              <button class="filter-btn active">All</button>
              <button class="filter-btn">Up</button>
              <button class="filter-btn">Down</button>
            </div>
          </div>
        </div>
      </div>

      <div class="flow-arrow-down">▼</div>
      <div class="api-call-label">GET /api/ports/search?q=printer&status=all&limit=100</div>
      <div class="flow-arrow-down">▼</div>

      <!-- Backend -->
      <div class="flow-block backend">
        <div class="block-header">
          <span class="block-icon">🐍</span>
          <span class="block-title">BACKEND (ports.py)</span>
        </div>
        <div class="block-steps">
          <div class="backend-step"><span class="step-num">1</span> Fetch ALL ports from LibreNMS API (~2000+ ports across all switches)</div>
          <div class="backend-step"><span class="step-num">2</span> Fetch ALL devices from LibreNMS API → Build device_id → hostname lookup map</div>
          <div class="backend-step"><span class="step-num">3</span> For each port, check if search term matches ifAlias (primary) or ifDescr (fallback) via case-insensitive substring match</div>
          <div class="backend-step"><span class="step-num">4</span> Apply status filter: "up", "down", or "all"</div>
          <div class="backend-step"><span class="step-num">5</span> Build result with device context: attach hostname, convert traffic rates to Mbps</div>
          <div class="backend-step"><span class="step-num">6</span> Sort results by device hostname, then port name</div>
          <div class="backend-step"><span class="step-num">7</span> Limit to 100 results (configurable, max 500)</div>
        </div>
      </div>

      <div class="flow-arrow-down">▼</div>

      <!-- API Response -->
      <div class="flow-block api">
        <div class="block-header">
          <span class="block-icon">📋</span>
          <span class="block-title">API RESPONSE</span>
        </div>
        <div class="block-code">
          <pre><code>{`{
  "query": "printer",
  "total": 12,
  "ports": [
    {
      "port_id": 4521,
      "device_id": 15,
      "device_hostname": "sw-bldg1-fl2",
      "ifName": "Gi1/0/24",
      "ifAlias": "Front Office Printer",
      "ifDescr": "GigabitEthernet1/0/24",
      "ifSpeed": 1000000000,
      "ifOperStatus": "up",
      "ifAdminStatus": "up",
      "in_mbps": 0.12,
      "out_mbps": 0.45
    }
    // (more results)
  ]
}`}</code></pre>
        </div>
      </div>

      <div class="flow-arrow-down">▼</div>

      <!-- Results Display -->
      <div class="flow-block widget">
        <div class="block-header">
          <span class="block-icon">📊</span>
          <span class="block-title">FRONTEND (Results Display)</span>
        </div>
        <div class="search-results-mockup">
          <div class="results-header">Found 12 ports matching "printer"</div>
          <div class="results-list">
            <div class="port-result">
              <div class="port-result-header">
                <span class="port-device">sw-bldg1-fl2</span>
                <span class="port-status up">up</span>
              </div>
              <div class="port-result-info">
                <span class="port-name">Gi1/0/24</span>
                <span class="port-speed">1G</span>
              </div>
              <div class="port-alias">Front Office Printer</div>
              <div class="port-traffic">
                <span class="traffic-in">↓ 0.12 Mbps</span>
                <span class="traffic-out">↑ 0.45 Mbps</span>
              </div>
            </div>
            <div class="port-result">
              <div class="port-result-header">
                <span class="port-device">sw-bldg2-fl1</span>
                <span class="port-status down">down</span>
              </div>
              <div class="port-result-info">
                <span class="port-name">Gi2/0/12</span>
                <span class="port-speed">100M</span>
              </div>
              <div class="port-alias">Break Room Printer</div>
            </div>
          </div>
        </div>
      </div>
    </div>

    <h3 class="deepdive-subhead">// Bonus: Alias Discovery</h3>
    <p class="section-desc">
      The <code>/api/ports/aliases</code> endpoint helps users discover what search terms exist in the network:
    </p>

    <div class="alias-discovery">
      <div class="alias-request">
        <code>GET /api/ports/aliases</code>
      </div>
      <div class="alias-response">
        <div class="alias-item"><span class="alias-term">printer</span><span class="alias-count">42 ports</span></div>
        <div class="alias-item"><span class="alias-term">voip</span><span class="alias-count">87 ports</span></div>
        <div class="alias-item"><span class="alias-term">podium</span><span class="alias-count">24 ports</span></div>
        <div class="alias-item"><span class="alias-term">wap</span><span class="alias-count">156 ports</span></div>
        <div class="alias-item"><span class="alias-term">digital-media</span><span class="alias-count">140 ports</span></div>
        <div class="alias-item"><span class="alias-term">server</span><span class="alias-count">23 ports</span></div>
      </div>
      <p class="alias-desc">
        Extracts words from all ifAlias fields, counts frequency (skips words &lt;3 chars and pure numbers),
        returns top 50 sorted by count. Helps users discover what types of devices are labeled without guessing.
      </p>
    </div>

    <h3 class="deepdive-subhead">// Technical Details</h3>
    <div class="tech-table">
      <div class="tech-row">
        <span class="tech-label">Search fields</span>
        <span class="tech-value">ifAlias (primary), ifDescr (fallback)</span>
      </div>
      <div class="tech-row">
        <span class="tech-label">Match type</span>
        <span class="tech-value">Case-insensitive substring</span>
      </div>
      <div class="tech-row">
        <span class="tech-label">Data source</span>
        <span class="tech-value">LibreNMS API (/api/v0/ports + /api/v0/devices)</span>
      </div>
      <div class="tech-row">
        <span class="tech-label">Default limit</span>
        <span class="tech-value">100 results (max 500)</span>
      </div>
      <div class="tech-row">
        <span class="tech-label">Traffic conversion</span>
        <span class="tech-value">(bytes/sec × 8) / 1,000,000 = Mbps</span>
      </div>
      <div class="tech-row">
        <span class="tech-label">Sort order</span>
        <span class="tech-value">Device hostname → Port name (alphabetical)</span>
      </div>
      <div class="tech-row">
        <span class="tech-label">Status filter</span>
        <span class="tech-value">ifOperStatus field (up/down)</span>
      </div>
    </div>

    <h3 class="deepdive-subhead">// UI States</h3>
    <div class="ui-states-grid">
      <div class="ui-state">
        <span class="state-name">idle</span>
        <span class="state-desc">Search input with placeholder text</span>
      </div>
      <div class="ui-state">
        <span class="state-name">loading</span>
        <span class="state-desc">Search button shows "..."</span>
      </div>
      <div class="ui-state">
        <span class="state-name">results</span>
        <span class="state-desc">Count + scrollable port list</span>
      </div>
      <div class="ui-state">
        <span class="state-name">error</span>
        <span class="state-desc">"Search failed. Try again." message</span>
      </div>
    </div>

    <h3 class="deepdive-subhead">// Speed Formatting</h3>
    <div class="code-snippet">
      <span class="snippet-label">formatSpeed(bps)</span>
      <pre><code>10G+ → "10G"
1G   → "1G"
100M → "100M"
10M  → "10M"
else → "{`{x}`}M"</code></pre>
    </div>

    <h3 class="deepdive-subhead">// Why This Approach</h3>
    <div class="approach-grid">
      <div class="approach-item">
        <span class="approach-icon">⚡</span>
        <div class="approach-content">
          <span class="approach-title">Real-time data</span>
          <span class="approach-desc">Queries LibreNMS directly, always current</span>
        </div>
      </div>
      <div class="approach-item">
        <span class="approach-icon">🔄</span>
        <div class="approach-content">
          <span class="approach-title">No local index</span>
          <span class="approach-desc">Avoids sync complexity, uses LibreNMS as source of truth</span>
        </div>
      </div>
      <div class="approach-item">
        <span class="approach-icon">🔤</span>
        <div class="approach-content">
          <span class="approach-title">Substring match</span>
          <span class="approach-desc">More flexible than exact match (finds "HP Printer" when searching "printer")</span>
        </div>
      </div>
      <div class="approach-item">
        <span class="approach-icon">🖥️</span>
        <div class="approach-content">
          <span class="approach-title">Device context</span>
          <span class="approach-desc">Shows hostname so user knows which switch to access</span>
        </div>
      </div>
      <div class="approach-item">
        <span class="approach-icon">📊</span>
        <div class="approach-content">
          <span class="approach-title">Traffic included</span>
          <span class="approach-desc">Helps verify device is actually active, not just link-up</span>
        </div>
      </div>
      <div class="approach-item">
        <span class="approach-icon">🔘</span>
        <div class="approach-content">
          <span class="approach-title">Status filter</span>
          <span class="approach-desc">Quickly find disconnected devices for troubleshooting</span>
        </div>
      </div>
    </div>
  </div>

  <!-- Feature Deep Dive: Cisco Port Grid -->
  <div class="feature-deepdive" id="port-grid">
    <h2>// Feature Deep Dive: Cisco Port Grid</h2>
    <p class="deepdive-intro">
      This feature renders a visual representation of physical switch ports that mirrors the actual front panel
      of a Cisco Catalyst switch: odd ports (1, 3, 5...) on top and even ports (2, 4, 6...) on the bottom,
      grouped into banks of 24 and organized by line card/module.
    </p>

    <div class="usecase-block">
      <div class="usecase-header">
        <span class="usecase-icon">🔌</span>
        <span class="usecase-title">Use Case: Physical Correlation</span>
      </div>
      <p class="usecase-desc">
        Network engineers standing at a rack can immediately correlate dashboard status with physical ports.
        Port 23 is always top-right of a bank, port 48 is always bottom-right. This layout matches what
        they see on the actual Cisco Catalyst hardware, eliminating mental translation.
      </p>
    </div>

    <h3 class="deepdive-subhead">// Data Flow</h3>

    <div class="deepdive-flow">
      <!-- Data Source -->
      <div class="flow-block api">
        <div class="block-header">
          <span class="block-icon">📡</span>
          <span class="block-title">LIBRENMS API</span>
        </div>
        <div class="block-code">
          <pre><code>{`GET /api/v0/devices/{id}/ports

Returns array of interfaces:
[
  { name: "Gi1/0/1", ifOperStatus: "up", ifSpeed: 1000000000 },
  { name: "Gi1/0/2", ifOperStatus: "down" },
  { name: "Te1/1/1", ifOperStatus: "up", ifSpeed: 10000000000 }
]`}</code></pre>
        </div>
      </div>

      <div class="flow-arrow-down">▼</div>
      <div class="api-call-label">Backend Aggregator → Topology → WebSocket → Frontend Store</div>
      <div class="flow-arrow-down">▼</div>

      <!-- Parser -->
      <div class="flow-block backend">
        <div class="block-header">
          <span class="block-icon">🔧</span>
          <span class="block-title">INTERFACE NAME PARSING (portUtils.ts)</span>
        </div>
        <div class="block-code parsing-example">
          <pre><code>Input: "Gi1/0/24"
        ││ │ │ └── Port number (24)
        ││ │ └──── Module/slot (0)
        ││ └────── Stack number (1)
        │└──────── Type prefix (Gi = Gigabit)
        └───────── Interface type

Output: {`{
  type: 'gigabit',
  typePrefix: 'Gi',
  stack: 1,
  module: 0,
  port: 24,
  sortKey: 10024,    // (1 × 10000) + (0 × 100) + 24
  isUplink: false,
  original: 'Gi1/0/24'
}`}</code></pre>
        </div>
      </div>

      <div class="flow-arrow-down">▼</div>

      <!-- Organization Algorithm -->
      <div class="flow-block config">
        <div class="block-header">
          <span class="block-icon">📊</span>
          <span class="block-title">PORT ORGANIZATION (organizePortsForGrid)</span>
        </div>
        <div class="block-steps">
          <div class="backend-step"><span class="step-num">1</span> Parse each interface name → GridPort object (failures → "other" array)</div>
          <div class="backend-step"><span class="step-num">2</span> Separate uplinks (10G+: Te*, Fo*, Hu*, Twe*) from access ports (Gi*, Fa*)</div>
          <div class="backend-step"><span class="step-num">3</span> Group access ports by module (line card): Module 0, Module 1, etc.</div>
          <div class="backend-step"><span class="step-num">4</span> Within each module, create banks of 24 ports: Bank 0 (1-24), Bank 1 (25-48)</div>
          <div class="backend-step"><span class="step-num">5</span> Within each bank, split by odd/even for physical row layout</div>
        </div>
      </div>

      <div class="flow-arrow-down">▼</div>

      <!-- Output Structure -->
      <div class="flow-block api">
        <div class="block-header">
          <span class="block-icon">📋</span>
          <span class="block-title">GRID DATA STRUCTURE</span>
        </div>
        <div class="block-code">
          <pre><code>{`{
  modules: [
    {
      moduleId: 0,
      label: "Slot 0",
      banks: [
        { label: "1-24", oddPorts: [12 ports], evenPorts: [12 ports] },
        { label: "25-48", oddPorts: [12 ports], evenPorts: [12 ports] }
      ]
    }
  ],
  uplinks: [GridPort array],   // 10G+ SFP ports
  other: [Interface array]     // VLANs, mgmt, loopback
}`}</code></pre>
        </div>
      </div>
    </div>

    <h3 class="deepdive-subhead">// Interface Type Support</h3>
    <div class="interface-types-table">
      <div class="intf-header">
        <span>Prefix</span>
        <span>Full Name</span>
        <span>Speed</span>
        <span>Uplink?</span>
      </div>
      <div class="intf-row">
        <code>Hu</code>
        <span>HundredGigabitEthernet</span>
        <span>100G</span>
        <span class="uplink-yes">Yes</span>
      </div>
      <div class="intf-row">
        <code>Fo</code>
        <span>FortyGigabitEthernet</span>
        <span>40G</span>
        <span class="uplink-yes">Yes</span>
      </div>
      <div class="intf-row">
        <code>Twe</code>
        <span>TwentyFiveGigE</span>
        <span>25G</span>
        <span class="uplink-yes">Yes</span>
      </div>
      <div class="intf-row">
        <code>Te</code>
        <span>TenGigabitEthernet</span>
        <span>10G</span>
        <span class="uplink-yes">Yes</span>
      </div>
      <div class="intf-row">
        <code>Gi</code>
        <span>GigabitEthernet</span>
        <span>1G</span>
        <span class="uplink-no">No</span>
      </div>
      <div class="intf-row">
        <code>Fa</code>
        <span>FastEthernet</span>
        <span>100M</span>
        <span class="uplink-no">No</span>
      </div>
    </div>

    <h3 class="deepdive-subhead">// Visual Rendering</h3>
    <div class="portgrid-mockup">
      <div class="cisco-chassis">
        <div class="chassis-bezel top">
          <span class="cisco-brand">CISCO</span>
          <span class="chassis-hostname">sw-core-01.network.local</span>
        </div>

        <div class="uplink-module">
          <span class="uplink-label">10G</span>
          <div class="uplink-ports">
            <div class="sfp-port up"></div>
            <div class="sfp-port up"></div>
            <div class="sfp-port down"></div>
            <div class="sfp-port disabled"></div>
          </div>
          <span class="uplink-range">Te1/1/1-4</span>
        </div>

        <div class="port-module">
          <span class="module-label">Slot 0</span>
          <div class="port-bank">
            <div class="port-labels top">
              <span>1</span><span>3</span><span>5</span><span>7</span><span>9</span><span>11</span>
              <span>13</span><span>15</span><span>17</span><span>19</span><span>21</span><span>23</span>
            </div>
            <div class="port-row odd">
              <div class="rj45-port up"></div>
              <div class="rj45-port up"></div>
              <div class="rj45-port up"></div>
              <div class="rj45-port warning"></div>
              <div class="rj45-port up"></div>
              <div class="rj45-port up"></div>
              <div class="rj45-port up"></div>
              <div class="rj45-port up"></div>
              <div class="rj45-port up"></div>
              <div class="rj45-port up"></div>
              <div class="rj45-port up"></div>
              <div class="rj45-port up"></div>
            </div>
            <div class="port-row even">
              <div class="rj45-port up"></div>
              <div class="rj45-port up"></div>
              <div class="rj45-port down"></div>
              <div class="rj45-port up"></div>
              <div class="rj45-port up"></div>
              <div class="rj45-port up"></div>
              <div class="rj45-port up"></div>
              <div class="rj45-port up"></div>
              <div class="rj45-port up"></div>
              <div class="rj45-port disabled"></div>
              <div class="rj45-port up"></div>
              <div class="rj45-port up"></div>
            </div>
            <div class="port-labels bottom">
              <span>2</span><span>4</span><span>6</span><span>8</span><span>10</span><span>12</span>
              <span>14</span><span>16</span><span>18</span><span>20</span><span>22</span><span>24</span>
            </div>
          </div>
        </div>

        <div class="port-module">
          <span class="module-label">Slot 1</span>
          <div class="port-bank">
            <div class="port-labels top">
              <span>1</span><span>3</span><span>5</span><span>7</span><span>9</span><span>11</span>
              <span>13</span><span>15</span><span>17</span><span>19</span><span>21</span><span>23</span>
            </div>
            <div class="port-row odd">
              <div class="rj45-port up"></div>
              <div class="rj45-port up"></div>
              <div class="rj45-port up"></div>
              <div class="rj45-port up"></div>
              <div class="rj45-port up"></div>
              <div class="rj45-port down"></div>
              <div class="rj45-port up"></div>
              <div class="rj45-port up"></div>
              <div class="rj45-port warning"></div>
              <div class="rj45-port up"></div>
              <div class="rj45-port up"></div>
              <div class="rj45-port up"></div>
            </div>
            <div class="port-row even">
              <div class="rj45-port up"></div>
              <div class="rj45-port up"></div>
              <div class="rj45-port up"></div>
              <div class="rj45-port up"></div>
              <div class="rj45-port down"></div>
              <div class="rj45-port up"></div>
              <div class="rj45-port up"></div>
              <div class="rj45-port up"></div>
              <div class="rj45-port up"></div>
              <div class="rj45-port up"></div>
              <div class="rj45-port up"></div>
              <div class="rj45-port up"></div>
            </div>
            <div class="port-labels bottom">
              <span>2</span><span>4</span><span>6</span><span>8</span><span>10</span><span>12</span>
              <span>14</span><span>16</span><span>18</span><span>20</span><span>22</span><span>24</span>
            </div>
          </div>
        </div>

        <div class="port-module">
          <span class="module-label">Slot 2</span>
          <div class="port-bank">
            <div class="port-labels top">
              <span>1</span><span>3</span><span>5</span><span>7</span><span>9</span><span>11</span>
              <span>13</span><span>15</span><span>17</span><span>19</span><span>21</span><span>23</span>
            </div>
            <div class="port-row odd">
              <div class="rj45-port up"></div>
              <div class="rj45-port up"></div>
              <div class="rj45-port up"></div>
              <div class="rj45-port up"></div>
              <div class="rj45-port up"></div>
              <div class="rj45-port up"></div>
              <div class="rj45-port up"></div>
              <div class="rj45-port disabled"></div>
              <div class="rj45-port disabled"></div>
              <div class="rj45-port disabled"></div>
              <div class="rj45-port disabled"></div>
              <div class="rj45-port disabled"></div>
            </div>
            <div class="port-row even">
              <div class="rj45-port up"></div>
              <div class="rj45-port up"></div>
              <div class="rj45-port down"></div>
              <div class="rj45-port up"></div>
              <div class="rj45-port up"></div>
              <div class="rj45-port up"></div>
              <div class="rj45-port up"></div>
              <div class="rj45-port disabled"></div>
              <div class="rj45-port disabled"></div>
              <div class="rj45-port disabled"></div>
              <div class="rj45-port disabled"></div>
              <div class="rj45-port disabled"></div>
            </div>
            <div class="port-labels bottom">
              <span>2</span><span>4</span><span>6</span><span>8</span><span>10</span><span>12</span>
              <span>14</span><span>16</span><span>18</span><span>20</span><span>22</span><span>24</span>
            </div>
          </div>
        </div>

        <div class="chassis-bezel bottom">
          <div class="status-legend">
            <span class="legend-item"><span class="led up"></span> 58 up</span>
            <span class="legend-item"><span class="led down"></span> 4 down</span>
            <span class="legend-item"><span class="led disabled"></span> 10 disabled</span>
          </div>
        </div>
      </div>
    </div>

    <div class="led-legend">
      <div class="led-legend-title">LED Status Colors</div>
      <div class="led-legend-grid">
        <div class="led-legend-item">
          <span class="led-sample up"></span>
          <span class="led-desc">Green: Port up, normal operation</span>
        </div>
        <div class="led-legend-item">
          <span class="led-sample down"></span>
          <span class="led-desc">Red: Port down, link failure</span>
        </div>
        <div class="led-legend-item">
          <span class="led-sample warning"></span>
          <span class="led-desc">Amber: Up but &gt;80% utilization</span>
        </div>
        <div class="led-legend-item">
          <span class="led-sample disabled"></span>
          <span class="led-desc">Grey: Admin disabled</span>
        </div>
      </div>
    </div>

    <h3 class="deepdive-subhead">// Port Detail Panel</h3>
    <p class="section-desc">Clicking a port opens an expanded detail view:</p>
    <div class="port-detail-mockup">
      <div class="detail-header">
        <span class="detail-back">← Back</span>
        <span class="detail-port"><span class="detail-led up"></span> Gi1/0/24</span>
      </div>
      <div class="detail-body">
        <div class="detail-alias">Office HP LaserJet</div>
        <div class="detail-row">
          <div class="detail-stat">
            <span class="stat-label">Status</span>
            <span class="stat-value up">● up</span>
          </div>
          <div class="detail-stat">
            <span class="stat-label">Speed</span>
            <span class="stat-value">1G</span>
          </div>
        </div>
        <div class="detail-section">
          <span class="section-label">Utilization</span>
          <div class="util-bar">
            <div class="util-fill" style="width: 45%"></div>
          </div>
          <span class="util-pct">45%</span>
        </div>
        <div class="detail-section">
          <span class="section-label">Traffic</span>
          <div class="traffic-stats">
            <div class="traffic-box">
              <span class="traffic-dir">In</span>
              <span class="traffic-value">12.5</span>
              <span class="traffic-unit">Mbps</span>
            </div>
            <div class="traffic-box">
              <span class="traffic-dir">Out</span>
              <span class="traffic-value">2.3</span>
              <span class="traffic-unit">Mbps</span>
            </div>
          </div>
        </div>
        <div class="detail-badges">
          <span class="badge trunk">Trunk</span>
          <span class="badge poe">PoE: 12.5W</span>
        </div>
      </div>
    </div>

    <h3 class="deepdive-subhead">// Component Hierarchy</h3>
    <div class="component-tree">
      <div class="tree-node root">PortGrid.tsx</div>
      <div class="tree-children">
        <div class="tree-node">Chassis Container (dark metallic styling)</div>
        <div class="tree-children">
          <div class="tree-node">Bezel Top: "CISCO" brand + device name</div>
          <div class="tree-node">Uplink Module: PortSquare[] (variant="sfp")</div>
          <div class="tree-node">Port Modules (for each line card)</div>
          <div class="tree-children">
            <div class="tree-node">PortBankDisplay (for each bank of 24)</div>
            <div class="tree-children">
              <div class="tree-node">Port number labels (1, 3, 5...)</div>
              <div class="tree-node">Top row: PortSquare[] (odd ports)</div>
              <div class="tree-node">Bottom row: PortSquare[] (even ports)</div>
            </div>
          </div>
          <div class="tree-node">Bezel Bottom: Status legend</div>
        </div>
        <div class="tree-node">Other Interfaces (VLANs, mgmt, loopback)</div>
      </div>
    </div>

    <h3 class="deepdive-subhead">// Technical Details</h3>
    <div class="tech-table">
      <div class="tech-row">
        <span class="tech-label">Data source</span>
        <span class="tech-value">LibreNMS /api/v0/devices/{`{id}`}/ports</span>
      </div>
      <div class="tech-row">
        <span class="tech-label">Parsing</span>
        <span class="tech-value">Regex matching for Cisco naming conventions</span>
      </div>
      <div class="tech-row">
        <span class="tech-label">Layout</span>
        <span class="tech-value">CSS Flexbox, 12 ports per row</span>
      </div>
      <div class="tech-row">
        <span class="tech-label">Port sizing</span>
        <span class="tech-value">RJ45: 18×14px, SFP: 24×20px</span>
      </div>
      <div class="tech-row">
        <span class="tech-label">State</span>
        <span class="tech-value">React useState for selected port, hover tooltip</span>
      </div>
      <div class="tech-row">
        <span class="tech-label">Interactivity</span>
        <span class="tech-value">Click → detail panel, hover → tooltip</span>
      </div>
      <div class="tech-row">
        <span class="tech-label">Responsiveness</span>
        <span class="tech-value">Wraps naturally, banks stack vertically</span>
      </div>
    </div>

    <h3 class="deepdive-subhead">// Why This Layout</h3>
    <div class="approach-grid">
      <div class="approach-item">
        <span class="approach-icon">🔌</span>
        <div class="approach-content">
          <span class="approach-title">Physical accuracy</span>
          <span class="approach-desc">Odd ports top, even bottom; matches actual Cisco Catalyst hardware</span>
        </div>
      </div>
      <div class="approach-item">
        <span class="approach-icon">📦</span>
        <div class="approach-content">
          <span class="approach-title">Banks of 24</span>
          <span class="approach-desc">Matches line card groupings on physical switches</span>
        </div>
      </div>
      <div class="approach-item">
        <span class="approach-icon">⬆️</span>
        <div class="approach-content">
          <span class="approach-title">SFP+ at top</span>
          <span class="approach-desc">Mirrors physical uplink placement on switch chassis</span>
        </div>
      </div>
      <div class="approach-item">
        <span class="approach-icon">🏷️</span>
        <div class="approach-content">
          <span class="approach-title">Module labels</span>
          <span class="approach-desc">For modular switches (4506, etc.) with multiple line cards</span>
        </div>
      </div>
      <div class="approach-item">
        <span class="approach-icon">👁️</span>
        <div class="approach-content">
          <span class="approach-title">Rack correlation</span>
          <span class="approach-desc">Engineers can match dashboard to physical port at a glance</span>
        </div>
      </div>
    </div>
  </div>

  <!-- Feature Deep Dive: Proxmox Panel -->
  <div class="feature-deepdive" id="proxmox-panel">
    <h2>// Feature Deep Dive: Proxmox Panel</h2>
    <p class="deepdive-intro">
      When clicking a Proxmox hypervisor node in the topology, this panel displays a detailed dashboard
      showing the node's health, all VMs and containers with live CPU/RAM metrics, and storage pool
      utilization with color-coded capacity warnings.
    </p>

    <div class="usecase-block">
      <div class="usecase-header">
        <span class="usecase-icon">🖥️</span>
        <span class="usecase-title">Use Case: At-a-Glance Hypervisor Health</span>
      </div>
      <p class="usecase-desc">
        NOC operators need quick visibility into what's running on each Proxmox node without logging into
        the Proxmox web UI. This panel shows running/stopped VMs, resource consumption, and storage capacity
        in the same sidebar used for network device details.
      </p>
    </div>

    <h3 class="deepdive-subhead">// Data Flow</h3>

    <div class="deepdive-flow">
      <!-- User Action -->
      <div class="flow-block widget">
        <div class="block-header">
          <span class="block-icon">🖱️</span>
          <span class="block-title">USER ACTION</span>
        </div>
        <div class="block-steps">
          <div class="backend-step"><span class="step-num">1</span> User clicks Proxmox node in topology (e.g., "proxmox1")</div>
          <div class="backend-step"><span class="step-num">2</span> DeviceCard.tsx detects device_type === 'hypervisor'</div>
          <div class="backend-step"><span class="step-num">3</span> ProxmoxPanel.tsx renders with nodeName prop</div>
        </div>
      </div>

      <div class="flow-arrow-down">▼</div>
      <div class="api-call-label">GET /api/vms/node/{`{nodeName}`}</div>
      <div class="flow-arrow-down">▼</div>

      <!-- Backend -->
      <div class="flow-block backend">
        <div class="block-header">
          <span class="block-icon">🐍</span>
          <span class="block-title">BACKEND (vms.py)</span>
        </div>
        <div class="block-steps">
          <div class="backend-step"><span class="step-num">1</span> Look up node in Redis cache (match by name, instance, or normalized input)</div>
          <div class="backend-step"><span class="step-num">2</span> Filter VMs/LXCs from cache, separate into QEMU and LXC lists</div>
          <div class="backend-step"><span class="step-num">3</span> Fetch storage pools from Proxmox API (on-demand, not cached)</div>
          <div class="backend-step"><span class="step-num">4</span> Calculate running/total counts for summary badges</div>
        </div>
      </div>

      <div class="flow-arrow-down">▼</div>

      <!-- API Response -->
      <div class="flow-block api">
        <div class="block-header">
          <span class="block-icon">📋</span>
          <span class="block-title">API RESPONSE</span>
        </div>
        <div class="block-code">
          <pre><code>{`{
  "node": {
    "node": "proxmox1", "status": "online",
    "cpu": 23.5, "memory": 67.2,
    "maxcpu": 32, "maxmem": 137438953472
  },
  "vms": [
    { "vmid": 100, "name": "dc1", "status": "running",
      "cpu": 2.3, "memory": 45.0 }
  ],
  "lxcs": [
    { "vmid": 200, "name": "librenms", "status": "running",
      "cpu": 5.1, "memory": 32.0 }
  ],
  "storage": [
    { "storage": "local-zfs", "type": "zfspool",
      "used": 500000000000, "total": 2000000000000,
      "used_percent": 25.0 }
  ],
  "vms_running": 8, "vms_total": 10,
  "lxcs_running": 12, "lxcs_total": 12
}`}</code></pre>
        </div>
      </div>
    </div>

    <h3 class="deepdive-subhead">// Visual Layout</h3>
    <div class="proxmox-panel-mockup">
      <div class="pve-section">
        <div class="pve-section-header">
          <span class="pve-section-icon">🖥️</span>
          <span class="pve-section-title">NODE</span>
          <span class="pve-section-count">1 / 1</span>
        </div>
        <div class="pve-section-body">
          <div class="pve-columns">
            <span class="pve-col-name">Name</span>
            <span class="pve-col-cpu">CPU</span>
            <span class="pve-col-ram">RAM</span>
          </div>
          <div class="pve-row">
            <span class="pve-status running"></span>
            <span class="pve-name">proxmox1</span>
            <span class="pve-cpu">23.5%</span>
            <span class="pve-ram">67.2%</span>
          </div>
        </div>
      </div>

      <div class="pve-section">
        <div class="pve-section-header">
          <span class="pve-section-icon">💻</span>
          <span class="pve-section-title">VMS</span>
          <span class="pve-section-count">8 / 10</span>
        </div>
        <div class="pve-section-body">
          <div class="pve-columns">
            <span class="pve-col-name">Name</span>
            <span class="pve-col-cpu">CPU</span>
            <span class="pve-col-ram">RAM</span>
          </div>
          <div class="pve-row">
            <span class="pve-status running"></span>
            <span class="pve-name">dc1</span>
            <span class="pve-cpu">2.3%</span>
            <span class="pve-ram">45.0%</span>
          </div>
          <div class="pve-row">
            <span class="pve-status running"></span>
            <span class="pve-name">wazuh-manager</span>
            <span class="pve-cpu">12.5%</span>
            <span class="pve-ram">78.3%</span>
          </div>
          <div class="pve-row">
            <span class="pve-status stopped"></span>
            <span class="pve-name">template-win11</span>
            <span class="pve-cpu">0.0%</span>
            <span class="pve-ram">0.0%</span>
          </div>
          <div class="pve-row">
            <span class="pve-status running"></span>
            <span class="pve-name">thehive</span>
            <span class="pve-cpu">8.2%</span>
            <span class="pve-ram">65.4%</span>
          </div>
        </div>
      </div>

      <div class="pve-section">
        <div class="pve-section-header">
          <span class="pve-section-icon">📦</span>
          <span class="pve-section-title">LXCS</span>
          <span class="pve-section-count">12 / 12</span>
        </div>
        <div class="pve-section-body">
          <div class="pve-columns">
            <span class="pve-col-name">Name</span>
            <span class="pve-col-cpu">CPU</span>
            <span class="pve-col-ram">RAM</span>
          </div>
          <div class="pve-row">
            <span class="pve-status running"></span>
            <span class="pve-name">librenms</span>
            <span class="pve-cpu">5.1%</span>
            <span class="pve-ram">32.0%</span>
          </div>
          <div class="pve-row">
            <span class="pve-status running"></span>
            <span class="pve-name">netdisco</span>
            <span class="pve-cpu">1.2%</span>
            <span class="pve-ram">18.5%</span>
          </div>
          <div class="pve-row">
            <span class="pve-status running"></span>
            <span class="pve-name">watchtower</span>
            <span class="pve-cpu">3.4%</span>
            <span class="pve-ram">24.2%</span>
          </div>
          <div class="pve-row">
            <span class="pve-status running"></span>
            <span class="pve-name">wazuh-indexer</span>
            <span class="pve-cpu">15.2%</span>
            <span class="pve-ram">85.3%</span>
          </div>
        </div>
      </div>

      <div class="pve-section">
        <div class="pve-section-header">
          <span class="pve-section-icon">💾</span>
          <span class="pve-section-title">STORAGE</span>
          <span class="pve-section-count">3 / 3</span>
        </div>
        <div class="pve-section-body storage">
          <div class="storage-item">
            <div class="storage-header">
              <span class="storage-name">local-zfs</span>
              <span class="storage-type">zfspool</span>
            </div>
            <div class="storage-bar-container">
              <div class="storage-bar normal" style="width: 25%"></div>
            </div>
            <div class="storage-stats">
              <span class="storage-used">500 GB / 2.0 TB</span>
              <span class="storage-pct">25.0%</span>
            </div>
          </div>
          <div class="storage-item">
            <div class="storage-header">
              <span class="storage-name">ceph-pool</span>
              <span class="storage-type">rbd</span>
            </div>
            <div class="storage-bar-container">
              <div class="storage-bar normal" style="width: 64%"></div>
            </div>
            <div class="storage-stats">
              <span class="storage-used">3.2 TB / 5.0 TB</span>
              <span class="storage-pct">64.0%</span>
            </div>
          </div>
          <div class="storage-item">
            <div class="storage-header">
              <span class="storage-name">backup-nfs</span>
              <span class="storage-type warning">nfs</span>
            </div>
            <div class="storage-bar-container">
              <div class="storage-bar warning" style="width: 85%"></div>
            </div>
            <div class="storage-stats">
              <span class="storage-used">8.5 TB / 10.0 TB</span>
              <span class="storage-pct warning">85.0%</span>
            </div>
          </div>
        </div>
      </div>
    </div>

    <div class="pve-legend">
      <div class="pve-legend-title">Legend</div>
      <div class="pve-legend-grid">
        <div class="pve-legend-item">
          <span class="pve-legend-dot running"></span>
          <span>Running / Online</span>
        </div>
        <div class="pve-legend-item">
          <span class="pve-legend-dot stopped"></span>
          <span>Stopped</span>
        </div>
        <div class="pve-legend-item">
          <span class="pve-legend-sample cpu">23.5%</span>
          <span>CPU (blue)</span>
        </div>
        <div class="pve-legend-item">
          <span class="pve-legend-sample ram">67.2%</span>
          <span>RAM (purple)</span>
        </div>
      </div>
      <div class="pve-legend-storage">
        <span class="pve-legend-bar normal"></span> Normal (&lt;70%)
        <span class="pve-legend-bar warning"></span> Warning (70-90%)
        <span class="pve-legend-bar critical"></span> Critical (&gt;90%)
      </div>
    </div>

    <h3 class="deepdive-subhead">// Data Sources</h3>
…
    display: flex;
    flex-wrap: wrap;
    gap: 0.5rem 1rem;
    font-family: "IBM Plex Mono", monospace;
    font-size: 0.7rem;
    opacity: 0.8;
  }

  .arch-arrow-down {
    text-align: center;
    color: #10b981;
    font-size: 1.25rem;
    padding: 0.25rem 0;
  }

  .arch-processor {
    background: color-mix(in srgb, #10b981 8%, transparent);
    border: 1px solid color-mix(in srgb, #10b981 25%, transparent);
    border-radius: 6px;
    padding: 1rem;
  }

  .arch-processor.collision {
    background: color-mix(in srgb, #f59e0b 8%, transparent);
    border-color: color-mix(in srgb, #f59e0b 25%, transparent);
  }

  .proc-header {
    font-family: "IBM Plex Mono", monospace;
    font-size: 0.85rem;
    font-weight: 600;
    color: #10b981;
    margin-bottom: 0.75rem;
  }

  .arch-processor.collision .proc-header {
    color: #f59e0b;
  }

  .proc-logic {
    display: flex;
    flex-direction: column;
    gap: 0.5rem;
  }

  .proc-rule {
    display: grid;
    grid-template-columns: auto auto 1fr;
    gap: 0.5rem;
    font-size: 0.75rem;
    align-items: baseline;
  }

  .rule-condition {
    font-family: "IBM Plex Mono", monospace;
    opacity: 0.7;
  }

  .rule-if {
    font-family: "IBM Plex Mono", monospace;
    color: #10b981;
  }

  .rule-result {
    opacity: 0.9;
  }

  .proc-steps {
    display: flex;
    flex-direction: column;
    gap: 0.35rem;
  }

  .proc-step {
    font-size: 0.75rem;
    opacity: 0.9;
    padding-left: 0.5rem;
    border-left: 2px solid color-mix(in srgb, #f59e0b 40%, transparent);
  }

  .arch-renderer {
    background: color-mix(in srgb, #8b5cf6 8%, transparent);
    border: 1px solid color-mix(in srgb, #8b5cf6 25%, transparent);
    border-radius: 6px;
    padding: 1rem;
  }

  .renderer-header {
    font-family: "IBM Plex Mono", monospace;
    font-size: 0.85rem;
    font-weight: 600;
    color: #8b5cf6;
    margin-bottom: 0.75rem;
  }

  .renderer-controls {
    display: grid;
    grid-template-columns: repeat(auto-fit, minmax(200px, 1fr));
    gap: 0.35rem;
  }

  .control-item {
    font-size: 0.7rem;
    opacity: 0.85;
    padding: 0.25rem 0.5rem;
    background: color-mix(in srgb, currentColor 3%, transparent);
    border-radius: 3px;
  }

  .layout-desc {
    font-size: 0.85rem;
    opacity: 0.8;
    margin-bottom: 1rem;
  }

  /* Canvas Mockups */
  .canvas-mockup {
    margin: 1rem auto;
    max-width: 600px;
    background: color-mix(in srgb, currentColor 3%, transparent);
    border: 1px solid color-mix(in srgb, currentColor 15%, transparent);
    border-radius: 8px;
    overflow: hidden;
  }

  .canvas-toolbar {
    display: flex;
    align-items: center;
    gap: 0.5rem;
    padding: 0.5rem 1rem;
    background: color-mix(in srgb, currentColor 5%, transparent);
    border-bottom: 1px solid color-mix(in srgb, currentColor 10%, transparent);
  }

  .canvas-toolbar .toolbar-btn {
    font-family: "IBM Plex Mono", monospace;
    font-size: 0.65rem;
    padding: 0.25rem 0.5rem;
    background: color-mix(in srgb, currentColor 5%, transparent);
    border: 1px solid color-mix(in srgb, currentColor 15%, transparent);
    border-radius: 4px;
    cursor: pointer;
  }

  .canvas-toolbar .toolbar-btn.active {
    background: color-mix(in srgb, #10b981 20%, transparent);
    border-color: #10b981;
    color: #10b981;
  }

  .toolbar-spacer {
    flex: 1;
  }

  .canvas-area {
    position: relative;
    height: 280px;
    padding: 1rem;
  }

  .mock-cluster {
    position: absolute;
    left: var(--x);
    top: var(--y);
    width: 120px;
    padding: 0.5rem;
    background: color-mix(in srgb, currentColor 5%, transparent);
    border: 2px solid color-mix(in srgb, currentColor 20%, transparent);
    border-radius: 6px;
    text-align: center;
  }

  .mock-cluster.warning {
    border-color: #ef4444;
  }

  .mock-cluster.small {
    width: 90px;
    padding: 0.35rem;
  }

  .mock-cluster .cluster-icon {
    font-size: 1rem;
    margin-bottom: 0.25rem;
  }

  .mock-cluster .cluster-label {
    font-family: "IBM Plex Mono", monospace;
    font-size: 0.65rem;
    font-weight: 600;
    margin-bottom: 0.35rem;
  }

  .mock-cluster .cluster-dots {
    display: flex;
    justify-content: center;
    gap: 0.2rem;
    margin-bottom: 0.35rem;
    flex-wrap: wrap;
  }

  .mock-cluster .dot {
    width: 8px;
    height: 8px;
    border-radius: 50%;
  }

  .mock-cluster .dot.up {
    background: #10b981;
  }

  .mock-cluster .dot.down {
    background: #ef4444;
    animation: pulse-dot 1.5s ease-in-out infinite;
  }

  @keyframes pulse-dot {
    0%, 100% { opacity: 1; }
    50% { opacity: 0.4; }
  }

  .mock-cluster .cluster-summary {
    font-size: 0.55rem;
    opacity: 0.7;
  }

  .mock-edge {
    position: absolute;
    left: var(--x1);
    top: var(--y1);
    width: calc(var(--x2) - var(--x1));
    height: calc(var(--y2) - var(--y1));
    border: 0;
  }

  .mock-edge.h1, .mock-edge.h2, .mock-edge.h-exp {
    height: 2px;
    background: color-mix(in srgb, #10b981 60%, transparent);
    top: var(--y1);
  }

  .mock-edge.v1, .mock-edge.v2, .mock-edge.v-exp {
    width: 2px;
    background: color-mix(in srgb, #10b981 60%, transparent);
    left: var(--x1);
  }

  .mock-external {
    position: absolute;
    left: var(--x);
    top: var(--y);
    width: 80px;
    text-align: center;
  }

  .mock-external .external-glow {
    position: absolute;
    inset: -4px;
    border: 2px solid #10b981;
    border-radius: 50%;
    opacity: 0.5;
    animation: glow-pulse 2s ease-in-out infinite;
  }

  @keyframes glow-pulse {
    0%, 100% { opacity: 0.3; transform: scale(1); }
    50% { opacity: 0.6; transform: scale(1.05); }
  }

  .mock-external .external-content {
    position: relative;
    display: flex;
    flex-direction: column;
    align-items: center;
    padding: 0.75rem 0.5rem;
    background: color-mix(in srgb, currentColor 5%, transparent);
    border: 2px dashed color-mix(in srgb, currentColor 30%, transparent);
    border-radius: 50%;
  }

  .mock-external .external-icon-lg {
    font-size: 1.25rem;
  }

  .mock-external .external-label {
    font-family: "IBM Plex Mono", monospace;
    font-size: 0.6rem;
  }

  .canvas-hint {
    position: absolute;
    bottom: 0.5rem;
    left: 50%;
    transform: translateX(-50%);
    font-size: 0.6rem;
    opacity: 0.5;
    font-style: italic;
  }

  /* Expanded View */
  .expanded-cluster-box {
    position: absolute;
    left: var(--x);
    top: var(--y);
    width: 280px;
    padding: 0.5rem;
    background: color-mix(in srgb, currentColor 3%, transparent);
    border: 2px dashed color-mix(in srgb, #10b981 40%, transparent);
    border-radius: 8px;
  }

  .expanded-header {
    font-family: "IBM Plex Mono", monospace;
    font-size: 0.7rem;
    font-weight: 600;
    color: #10b981;
    text-align: center;
    margin-bottom: 0.5rem;
  }

  .expanded-devices {
    display: flex;
    gap: 0.5rem;
    justify-content: center;
    flex-wrap: wrap;
  }

  .mock-device {
    display: flex;
    flex-direction: column;
    align-items: center;
    padding: 0.4rem 0.6rem;
    background: color-mix(in srgb, currentColor 5%, transparent);
    border: 1px solid color-mix(in srgb, currentColor 15%, transparent);
    border-radius: 4px;
    min-width: 70px;
  }

  .mock-device .device-status {
    width: 8px;
    height: 8px;
    border-radius: 50%;
    margin-bottom: 0.2rem;
  }

  .mock-device .device-status.up {
    background: #10b981;
  }

  .mock-device .device-name {
    font-family: "IBM Plex Mono", monospace;
    font-size: 0.65rem;
    font-weight: 600;
  }

  .mock-device .device-ip {
    font-size: 0.55rem;
    opacity: 0.6;
  }

  /* Node Types Grid */
  .node-types-grid {
    display: grid;
    grid-template-columns: repeat(auto-fit, minmax(180px, 1fr));
    gap: 1rem;
    margin: 1rem 0;
  }

  .node-type-card {
    background: color-mix(in srgb, currentColor 3%, transparent);
    border: 1px solid color-mix(in srgb, currentColor 12%, transparent);
    border-radius: 6px;
    padding: 1rem;
    text-align: center;
  }

  .node-type-header {
    font-family: "IBM Plex Mono", monospace;
    font-size: 0.75rem;
    font-weight: 600;
    margin-bottom: 0.75rem;
    color: #3b82f6;
  }

  .node-type-mockup {
    margin: 0 auto 0.75rem;
  }

  .node-type-action, .node-type-desc {
    font-size: 0.65rem;
    opacity: 0.6;
    font-style: italic;
  }

  /* Cluster Node Mockup */
  .cluster-node-mock {
    position: relative;
    width: 140px;
    padding: 0.5rem;
    background: color-mix(in srgb, currentColor 5%, transparent);
    border: 2px solid color-mix(in srgb, currentColor 20%, transparent);
    border-radius: 6px;
  }

  .cnm-icon {
    font-size: 1rem;
  }

  .cnm-name {
    font-family: "IBM Plex Mono", monospace;
    font-size: 0.7rem;
    font-weight: 600;
  }

  .cnm-divider {
    height: 1px;
    background: color-mix(in srgb, currentColor 15%, transparent);
    margin: 0.35rem 0;
  }

  .cnm-dots {
    display: flex;
    justify-content: center;
    gap: 0.2rem;
    flex-wrap: wrap;
  }

  .cnm-dots .dot {
    width: 8px;
    height: 8px;
    border-radius: 50%;
    background: #10b981;
  }

  .cnm-summary {
    font-size: 0.55rem;
    opacity: 0.7;
  }

  .cnm-handles {
    position: absolute;
  }

  .cnm-handles .handle {
    position: absolute;
    width: 8px;
    height: 8px;
    background: color-mix(in srgb, currentColor 30%, transparent);
    border: 1px solid color-mix(in srgb, currentColor 50%, transparent);
    border-radius: 50%;
  }

  .cnm-handles .handle.top { top: -4px; left: 50%; transform: translateX(-50%); }
  .cnm-handles .handle.right { right: -4px; top: 50%; transform: translateY(-50%); }
  .cnm-handles .handle.bottom { bottom: -4px; left: 50%; transform: translateX(-50%); }
  .cnm-handles .handle.left { left: -4px; top: 50%; transform: translateY(-50%); }

  /* Device Node Mockup */
  .device-node-mock {
    position: relative;
    display: flex;
    align-items: center;
    gap: 0.5rem;
    width: 120px;
    padding: 0.5rem 0.75rem;
    background: color-mix(in srgb, currentColor 5%, transparent);
    border: 1px solid color-mix(in srgb, currentColor 20%, transparent);
    border-radius: 4px;
  }

  .dnm-status {
    width: 10px;
    height: 10px;
    border-radius: 50%;
    flex-shrink: 0;
  }

  .dnm-status.up {
    background: #10b981;
  }

  .dnm-info {
    display: flex;
    flex-direction: column;
    text-align: left;
  }

  .dnm-name {
    font-family: "IBM Plex Mono", monospace;
    font-size: 0.7rem;
    font-weight: 600;
  }

  .dnm-ip {
    font-size: 0.55rem;
    opacity: 0.6;
  }

  .dnm-handles {
    position: absolute;
  }

  .dnm-handles .handle {
    position: absolute;
    width: 6px;
    height: 6px;
    background: color-mix(in srgb, currentColor 30%, transparent);
    border: 1px solid color-mix(in srgb, currentColor 50%, transparent);
    border-radius: 50%;
  }

  .dnm-handles .handle.top { top: -3px; left: 50%; transform: translateX(-50%); }
  .dnm-handles .handle.right { right: -3px; top: 50%; transform: translateY(-50%); }
  .dnm-handles .handle.bottom { bottom: -3px; left: 50%; transform: translateX(-50%); }
  .dnm-handles .handle.left { left: -3px; top: 50%; transform: translateY(-50%); }

  /* External Node Mockup */
  .external-node-mock {
    position: relative;
    width: 90px;
    height: 70px;
    display: flex;
    flex-direction: column;
    align-items: center;
    justify-content: center;
    background: color-mix(in srgb, currentColor 3%, transparent);
    border: 2px dashed color-mix(in srgb, currentColor 25%, transparent);
    border-radius: 35px;
  }

  .enm-glow {
    position: absolute;
    inset: -3px;
    border: 2px solid #10b981;
    border-radius: 38px;
    opacity: 0.4;
    animation: glow-pulse 2s ease-in-out infinite;
  }

  .enm-icon {
    font-size: 1.25rem;
  }

  .enm-label {
    font-family: "IBM Plex Mono", monospace;
    font-size: 0.6rem;
  }

  /* Algorithm Block */
  .algorithm-block {
    background: color-mix(in srgb, currentColor 3%, transparent);
    border: 1px solid color-mix(in srgb, currentColor 12%, transparent);
    border-radius: 6px;
    overflow: hidden;
    margin: 1rem 0;
  }

  .algo-section {
    display: grid;
    grid-template-columns: 80px 1fr;
    border-bottom: 1px solid color-mix(in srgb, currentColor 8%, transparent);
  }

  .algo-section:last-child {
    border-bottom: none;
  }

  .algo-label {
    font-family: "IBM Plex Mono", monospace;
    font-size: 0.65rem;
    font-weight: 600;
    padding: 0.75rem;
    background: color-mix(in srgb, currentColor 3%, transparent);
    color: #f59e0b;
  }

  .algo-content {
    font-size: 0.75rem;
    padding: 0.75rem;
    line-height: 1.5;
  }

  .algo-content code {
    font-family: "IBM Plex Mono", monospace;
    font-size: 0.7rem;
    background: color-mix(in srgb, currentColor 5%, transparent);
    padding: 0.1rem 0.3rem;
    border-radius: 3px;
  }

  /* Persistence Block */
  .persistence-block {
    background: color-mix(in srgb, currentColor 3%, transparent);
    border: 1px solid color-mix(in srgb, currentColor 12%, transparent);
    border-radius: 6px;
    padding: 1rem;
    margin: 1rem 0;
  }

  .persist-key {
    margin-bottom: 1rem;
  }

  .persist-label {
    font-size: 0.75rem;
    opacity: 0.7;
    margin-right: 0.5rem;
  }

  .persist-key code {
    font-family: "IBM Plex Mono", monospace;
    font-size: 0.8rem;
    color: #10b981;
  }

  .persist-structure {
    margin-bottom: 1rem;
  }

  .persist-header {
    font-size: 0.75rem;
    opacity: 0.7;
    margin-bottom: 0.5rem;
  }

  .persist-structure pre {
    margin: 0;
    padding: 0.75rem;
    background: color-mix(in srgb, currentColor 3%, transparent);
    border-radius: 4px;
    overflow-x: auto;
  }

  .persist-structure code {
    font-family: "IBM Plex Mono", monospace;
    font-size: 0.7rem;
    line-height: 1.5;
  }

  .persist-triggers {
    display: flex;
    flex-direction: column;
    gap: 0.5rem;
  }

  .trigger-item {
    display: flex;
    gap: 0.5rem;
    font-size: 0.75rem;
  }

  .trigger-event {
    font-family: "IBM Plex Mono", monospace;
    font-weight: 600;
    color: #3b82f6;
    min-width: 50px;
  }

  .trigger-when code {
    font-family: "IBM Plex Mono", monospace;
    font-size: 0.7rem;
    background: color-mix(in srgb, currentColor 5%, transparent);
    padding: 0.1rem 0.3rem;
    border-radius: 3px;
  }

  /* Grid Layout Block */
  .grid-layout-block {
    display: grid;
    grid-template-columns: 1fr 1fr;
    gap: 1rem;
    margin: 1rem 0;
  }

  @media (max-width: 640px) {
    .grid-layout-block {
      grid-template-columns: 1fr;
    }
  }

  .grid-algo {
    display: flex;
    flex-direction: column;
    gap: 0.5rem;
  }

  .grid-step {
    display: flex;
    gap: 0.75rem;
    font-size: 0.75rem;
    align-items: flex-start;
  }

  .grid-step .step-num {
    display: flex;
    align-items: center;
    justify-content: center;
    min-width: 20px;
    height: 20px;
    background: #10b981;
    color: white;
    border-radius: 50%;
    font-size: 0.65rem;
    font-weight: 600;
    flex-shrink: 0;
  }

  .grid-step .step-text code {
    font-family: "IBM Plex Mono", monospace;
    font-size: 0.7rem;
    background: color-mix(in srgb, currentColor 5%, transparent);
    padding: 0.1rem 0.3rem;
    border-radius: 3px;
  }

  .grid-example {
    background: color-mix(in srgb, currentColor 3%, transparent);
    border: 1px solid color-mix(in srgb, currentColor 12%, transparent);
    border-radius: 6px;
    padding: 1rem;
  }

  .grid-example-header {
    font-family: "IBM Plex Mono", monospace;
    font-size: 0.7rem;
    opacity: 0.7;
    margin-bottom: 0.75rem;
  }

  .grid-visual {
    font-family: "IBM Plex Mono", monospace;
    font-size: 0.7rem;
    display: flex;
    flex-direction: column;
    align-items: center;
    gap: 0.15rem;
  }

  .grid-row {
    display: flex;
    align-items: center;
    gap: 0.25rem;
  }

  .grid-cell {
    padding: 0.2rem 0.4rem;
    background: color-mix(in srgb, #10b981 15%, transparent);
    border: 1px solid color-mix(in srgb, #10b981 40%, transparent);
    border-radius: 3px;
  }

  .grid-dash {
    opacity: 0.4;
  }

  .grid-vline {
    opacity: 0.4;
    white-space: pre;
  }

  /* Edge Routing Block */
  .edge-routing-block {
    background: color-mix(in srgb, currentColor 3%, transparent);
    border: 1px solid color-mix(in srgb, currentColor 12%, transparent);
    border-radius: 6px;
    padding: 1rem;
    margin: 1rem 0;
  }

  .routing-intro {
    font-size: 0.8rem;
    opacity: 0.85;
    margin-bottom: 0.75rem;
  }

  .routing-rules {
    display: flex;
    flex-direction: column;
    gap: 0.35rem;
    margin-bottom: 0.75rem;
  }

  .routing-rule {
    display: flex;
    gap: 0.75rem;
    font-size: 0.75rem;
    padding: 0.4rem 0.6rem;
    background: color-mix(in srgb, currentColor 3%, transparent);
    border-radius: 4px;
  }

  .routing-rule .rule-condition {
    font-family: "IBM Plex Mono", monospace;
    min-width: 220px;
    opacity: 0.8;
  }

  .routing-rule .rule-result {
    font-family: "IBM Plex Mono", monospace;
    color: #10b981;
  }

  .routing-note {
    font-size: 0.7rem;
    opacity: 0.6;
    font-style: italic;
    margin: 0;
  }

  /* Component Tree */
  .component-tree {
    font-family: "IBM Plex Mono", monospace;
    font-size: 0.75rem;
    margin: 1rem 0;
  }

  .tree-node {
    padding: 0.5rem 0.75rem;
    background: color-mix(in srgb, currentColor 5%, transparent);
    border: 1px solid color-mix(in srgb, currentColor 15%, transparent);
    border-radius: 4px;
    margin-bottom: 0.25rem;
  }

  .tree-node.root {
    background: color-mix(in srgb, #8b5cf6 10%, transparent);
    border-color: color-mix(in srgb, #8b5cf6 30%, transparent);
  }

  .tree-node.nested {
    background: color-mix(in srgb, #3b82f6 10%, transparent);
    border-color: color-mix(in srgb, #3b82f6 30%, transparent);
    margin-top: 0.5rem;
  }

  .tree-name {
    font-weight: 600;
  }

  .tree-desc {
    opacity: 0.6;
    margin-left: 0.5rem;
  }

  .tree-children {
    margin-left: 1.5rem;
    padding-left: 1rem;
    border-left: 2px solid color-mix(in srgb, currentColor 15%, transparent);
  }

  .tree-grandchildren {
    margin-left: 1rem;
    padding-left: 1rem;
    border-left: 2px solid color-mix(in srgb, currentColor 10%, transparent);
  }

  .tree-deep {
    margin-left: 1rem;
    padding-left: 1rem;
    border-left: 2px solid color-mix(in srgb, currentColor 8%, transparent);
  }

  .tree-leaf {
    font-size: 0.7rem;
    opacity: 0.8;
    padding: 0.25rem 0;
  }

  /* ===== WebSocket Real-Time Updates Deep Dive ===== */

  .ws-architecture {
    display: flex;
    flex-direction: column;
    gap: 0.5rem;
    margin: 1rem 0;
  }

  .ws-layer {
    background: color-mix(in srgb, currentColor 3%, transparent);
    border: 1px solid color-mix(in srgb, currentColor 12%, transparent);
    border-radius: 6px;
    overflow: hidden;
  }

  .ws-layer.scheduler {
    border-color: color-mix(in srgb, #f59e0b 30%, transparent);
  }

  .ws-layer.manager {
    border-color: color-mix(in srgb, #8b5cf6 30%, transparent);
  }

  .ws-layer.clients {
    border-color: color-mix(in srgb, #3b82f6 30%, transparent);
  }

  .ws-layer-header {
    display: flex;
    align-items: center;
    gap: 0.5rem;
    padding: 0.6rem 1rem;
    background: color-mix(in srgb, currentColor 3%, transparent);
    border-bottom: 1px solid color-mix(in srgb, currentColor 8%, transparent);
  }

  .ws-layer.scheduler .ws-layer-header { background: color-mix(in srgb, #f59e0b 8%, transparent); }
  .ws-layer.manager .ws-layer-header { background: color-mix(in srgb, #8b5cf6 8%, transparent); }
  .ws-layer.clients .ws-layer-header { background: color-mix(in srgb, #3b82f6 8%, transparent); }

  .ws-layer-icon {
    font-size: 1rem;
  }

  .ws-layer-title {
    font-family: "IBM Plex Mono", monospace;
    font-size: 0.75rem;
    font-weight: 600;
  }

  .ws-layer.scheduler .ws-layer-title { color: #f59e0b; }
  .ws-layer.manager .ws-layer-title { color: #8b5cf6; }
  .ws-layer.clients .ws-layer-title { color: #3b82f6; }

  .ws-pollers {
    padding: 0.75rem;
    display: flex;
    flex-direction: column;
    gap: 0.5rem;
  }

  .ws-poller {
    display: grid;
    grid-template-columns: 140px 70px 1fr;
    gap: 0.5rem;
    font-size: 0.7rem;
    padding: 0.5rem;
    background: color-mix(in srgb, currentColor 2%, transparent);
    border-radius: 4px;
    align-items: center;
  }

  .poller-name {
    font-family: "IBM Plex Mono", monospace;
    font-weight: 600;
    color: #f59e0b;
  }

  .poller-interval {
    font-family: "IBM Plex Mono", monospace;
    opacity: 0.6;
    font-size: 0.65rem;
  }

  .poller-action {
    opacity: 0.85;
  }

  .ws-arrow-down {
    text-align: center;
    font-family: "IBM Plex Mono", monospace;
    font-size: 0.8rem;
    color: #10b981;
    padding: 0.25rem 0;
  }

  .ws-manager-content {
    padding: 0.75rem;
  }

  .ws-manager-content code {
    font-family: "IBM Plex Mono", monospace;
    font-size: 0.7rem;
    display: block;
    margin-bottom: 0.5rem;
    opacity: 0.8;
  }

  .ws-manager-flow {
    display: flex;
    align-items: center;
    gap: 0.5rem;
    font-size: 0.7rem;
    padding: 0.4rem 0.6rem;
    background: color-mix(in srgb, currentColor 3%, transparent);
    border-radius: 4px;
  }

  .ws-flow-arrow {
    color: #8b5cf6;
  }

  .ws-clients-grid {
    display: flex;
    gap: 0.5rem;
    padding: 0.75rem;
    padding-bottom: 0.5rem;
  }

  .ws-client {
    font-family: "IBM Plex Mono", monospace;
    font-size: 0.65rem;
    padding: 0.3rem 0.6rem;
    background: color-mix(in srgb, #3b82f6 15%, transparent);
    border: 1px solid color-mix(in srgb, #3b82f6 30%, transparent);
    border-radius: 4px;
  }

  .ws-hook {
    padding: 0 0.75rem 0.75rem;
  }

  .ws-hook-name {
    font-family: "IBM Plex Mono", monospace;
    font-size: 0.75rem;
    font-weight: 600;
    margin-bottom: 0.5rem;
  }

  .ws-hook-handlers {
    display: flex;
    flex-direction: column;
    gap: 0.25rem;
  }

  .ws-handler {
    display: flex;
    align-items: center;
    gap: 0.5rem;
    font-size: 0.7rem;
    padding: 0.3rem 0.5rem;
    background: color-mix(in srgb, currentColor 2%, transparent);
    border-radius: 3px;
  }

  .handler-msg {
    font-family: "IBM Plex Mono", monospace;
    color: #10b981;
    min-width: 150px;
  }

  .handler-arrow {
    opacity: 0.5;
  }

  .handler-action {
    opacity: 0.85;
  }

  /* WebSocket Messages Grid */
  .ws-messages-grid {
    display: grid;
    grid-template-columns: repeat(auto-fit, minmax(280px, 1fr));
    gap: 1rem;
    margin: 1rem 0;
  }

  .ws-message-card {
    background: color-mix(in srgb, currentColor 3%, transparent);
    border: 1px solid color-mix(in srgb, currentColor 12%, transparent);
    border-radius: 6px;
    overflow: hidden;
  }

  .ws-message-card.keepalive {
    border-style: dashed;
    opacity: 0.8;
  }

  .ws-msg-header {
    padding: 0.5rem 0.75rem;
    background: color-mix(in srgb, #10b981 10%, transparent);
    border-bottom: 1px solid color-mix(in srgb, currentColor 8%, transparent);
  }

  .ws-msg-type {
    font-family: "IBM Plex Mono", monospace;
    font-size: 0.75rem;
    font-weight: 600;
    color: #10b981;
  }

  .ws-msg-desc {
    font-size: 0.7rem;
    opacity: 0.75;
    padding: 0.5rem 0.75rem;
    border-bottom: 1px solid color-mix(in srgb, currentColor 5%, transparent);
  }

  .ws-msg-payload {
    padding: 0.5rem;
  }

  .ws-msg-payload pre {
    margin: 0;
    font-size: 0.65rem;
    line-height: 1.4;
    overflow-x: auto;
  }

  .ws-msg-payload code {
    font-family: "IBM Plex Mono", monospace;
  }

  /* Connection Lifecycle */
  .ws-lifecycle {
    background: color-mix(in srgb, currentColor 3%, transparent);
    border: 1px solid color-mix(in srgb, currentColor 12%, transparent);
    border-radius: 6px;
    padding: 1rem;
    margin: 1rem 0;
  }

  .lifecycle-row {
    display: grid;
    grid-template-columns: 1fr 60px 1fr;
    text-align: center;
    margin-bottom: 1rem;
    font-family: "IBM Plex Mono", monospace;
    font-size: 0.75rem;
    font-weight: 600;
  }

  .lifecycle-client { color: #3b82f6; }
  .lifecycle-server { color: #10b981; }

  .lifecycle-arrow {
    position: relative;
  }

  .lifecycle-arrow::after {
    content: '';
    position: absolute;
    left: 50%;
    top: 0;
    bottom: 0;
    width: 1px;
    background: color-mix(in srgb, currentColor 20%, transparent);
  }

  .lifecycle-event {
    display: grid;
    grid-template-columns: 1fr 60px 1fr;
    gap: 0.5rem;
    margin-bottom: 0.5rem;
    font-size: 0.7rem;
  }

  .lifecycle-event.disconnect {
    margin-top: 1rem;
    padding-top: 0.75rem;
    border-top: 1px dashed color-mix(in srgb, #ef4444 40%, transparent);
  }

  .lifecycle-msg {
    font-family: "IBM Plex Mono", monospace;
    font-size: 0.65rem;
    padding: 0.25rem 0.5rem;
    border-radius: 3px;
    background: color-mix(in srgb, currentColor 3%, transparent);
  }

  .lifecycle-msg.outgoing {
    text-align: right;
    background: color-mix(in srgb, #3b82f6 10%, transparent);
    margin-left: auto;
  }

  .lifecycle-msg.incoming {
    text-align: left;
    background: color-mix(in srgb, #10b981 10%, transparent);
  }

  .lifecycle-note {
    font-size: 0.6rem;
    opacity: 0.5;
    text-align: center;
    align-self: center;
  }

  .lifecycle-action {
    font-size: 0.65rem;
    opacity: 0.75;
    text-align: left;
    padding-left: 0.5rem;
  }

  .lifecycle-reconnect {
    margin-top: 1rem;
    padding: 0.75rem;
    background: color-mix(in srgb, #f59e0b 8%, transparent);
    border: 1px solid color-mix(in srgb, #f59e0b 25%, transparent);
    border-radius: 4px;
    text-align: center;
  }

  .reconnect-label {
    font-family: "IBM Plex Mono", monospace;
    font-size: 0.75rem;
    font-weight: 600;
    color: #f59e0b;
    margin-bottom: 0.25rem;
  }

  .reconnect-delays {
    font-family: "IBM Plex Mono", monospace;
    font-size: 0.7rem;
    opacity: 0.8;
  }

  /* Reconnection Flow */
  .reconnect-flow {
    display: flex;
    flex-direction: column;
    align-items: center;
    gap: 0.25rem;
    margin: 1rem 0;
  }

  .reconnect-step {
    padding: 0.6rem 1rem;
    background: color-mix(in srgb, currentColor 5%, transparent);
    border: 1px solid color-mix(in srgb, currentColor 15%, transparent);
    border-radius: 6px;
    text-align: center;
  }

  .reconnect-step.trigger {
    background: color-mix(in srgb, #ef4444 10%, transparent);
    border-color: color-mix(in srgb, #ef4444 30%, transparent);
  }

  .reconnect-step .step-label {
    font-family: "IBM Plex Mono", monospace;
    font-size: 0.75rem;
    font-weight: 600;
  }

  .reconnect-step.trigger .step-label {
    color: #ef4444;
  }

  .reconnect-step code {
    display: block;
    font-family: "IBM Plex Mono", monospace;
    font-size: 0.7rem;
    margin-top: 0.25rem;
    opacity: 0.8;
  }

  .reconnect-arrow {
    color: #10b981;
    font-size: 1rem;
  }

  .reconnect-delays-table {
    display: grid;
    grid-template-columns: repeat(2, auto);
    gap: 0.25rem 1rem;
    padding: 0.75rem 1rem;
    background: color-mix(in srgb, currentColor 3%, transparent);
    border-radius: 4px;
    font-family: "IBM Plex Mono", monospace;
    font-size: 0.65rem;
  }

  .delay-row {
    display: contents;
  }

  .delay-row span:first-child {
    opacity: 0.6;
    text-align: right;
  }

  .attempt-outcomes {
    display: flex;
    flex-direction: column;
    gap: 0.25rem;
    margin-top: 0.5rem;
  }

  .outcome {
    font-family: "IBM Plex Mono", monospace;
    font-size: 0.7rem;
    padding: 0.25rem 0.5rem;
    border-radius: 3px;
  }

  .outcome.success {
    background: color-mix(in srgb, #10b981 15%, transparent);
    color: #10b981;
  }

  .outcome.failure {
    background: color-mix(in srgb, #ef4444 15%, transparent);
    color: #ef4444;
  }

  /* Hostname Matching */
  .hostname-matching {
    display: grid;
    grid-template-columns: 1fr 2fr;
    gap: 1rem;
    margin: 1rem 0;
  }

  @media (max-width: 768px) {
    .hostname-matching {
      grid-template-columns: 1fr;
    }
  }

  .matching-problem {
    background: color-mix(in srgb, #ef4444 8%, transparent);
    border: 1px solid color-mix(in srgb, #ef4444 25%, transparent);
    border-radius: 6px;
    padding: 1rem;
  }

  .problem-label {
    font-family: "IBM Plex Mono", monospace;
    font-size: 0.7rem;
    font-weight: 600;
    color: #ef4444;
    margin-bottom: 0.5rem;
  }

  .problem-row {
    display: flex;
    gap: 0.5rem;
    font-size: 0.75rem;
    margin-bottom: 0.25rem;
  }

  .problem-source {
    opacity: 0.7;
    min-width: 100px;
  }

  .problem-row code {
    font-family: "IBM Plex Mono", monospace;
  }

  .matching-algorithm {
    background: color-mix(in srgb, #10b981 8%, transparent);
    border: 1px solid color-mix(in srgb, #10b981 25%, transparent);
    border-radius: 6px;
    overflow: hidden;
  }

  .algo-header {
    font-family: "IBM Plex Mono", monospace;
    font-size: 0.75rem;
    font-weight: 600;
    color: #10b981;
    padding: 0.6rem 1rem;
    background: color-mix(in srgb, #10b981 8%, transparent);
    border-bottom: 1px solid color-mix(in srgb, #10b981 15%, transparent);
  }

  .algo-steps {
    padding: 0.75rem;
    display: flex;
    flex-direction: column;
    gap: 0.5rem;
  }

  .algo-step {
    display: flex;
    gap: 0.75rem;
    font-size: 0.75rem;
  }

  .algo-step .step-num {
    display: flex;
    align-items: center;
    justify-content: center;
    min-width: 22px;
    height: 22px;
    background: #10b981;
    color: white;
    border-radius: 50%;
    font-size: 0.65rem;
    font-weight: 600;
    flex-shrink: 0;
  }

  .algo-step .step-content {
    display: flex;
    flex-direction: column;
    gap: 0.15rem;
  }

  .algo-step .step-name {
    font-family: "IBM Plex Mono", monospace;
    font-weight: 600;
  }

  .algo-step .step-logic {
    font-size: 0.7rem;
    opacity: 0.85;
  }

  .algo-step .step-example {
    font-size: 0.65rem;
    opacity: 0.6;
    font-style: italic;
  }

  /* Component Structure Split */
  .ws-component-split {
    display: grid;
    grid-template-columns: 1fr 1fr;
    gap: 1rem;
    margin: 1rem 0;
  }

  @media (max-width: 768px) {
    .ws-component-split {
      grid-template-columns: 1fr;
    }
  }

  .ws-component-col {
    background: color-mix(in srgb, currentColor 3%, transparent);
    border: 1px solid color-mix(in srgb, currentColor 12%, transparent);
    border-radius: 6px;
    overflow: hidden;
  }

  .ws-component-col.backend {
    border-color: color-mix(in srgb, #10b981 30%, transparent);
  }

  .ws-component-col.frontend {
    border-color: color-mix(in srgb, #3b82f6 30%, transparent);
  }

  .component-col-header {
    font-family: "IBM Plex Mono", monospace;
    font-size: 0.75rem;
    font-weight: 600;
    padding: 0.6rem 1rem;
    border-bottom: 1px solid color-mix(in srgb, currentColor 10%, transparent);
  }

  .ws-component-col.backend .component-col-header {
    background: color-mix(in srgb, #10b981 10%, transparent);
    color: #10b981;
  }

  .ws-component-col.frontend .component-col-header {
    background: color-mix(in srgb, #3b82f6 10%, transparent);
    color: #3b82f6;
  }

  .ws-component-col .component-tree {
    padding: 0.75rem;
  }

  .tree-file {
    font-family: "IBM Plex Mono", monospace;
    font-size: 0.75rem;
    font-weight: 600;
    margin-bottom: 0.75rem;
  }

  .tree-file:last-child {
    margin-bottom: 0;
  }

  .tree-contents {
    display: flex;
    flex-direction: column;
    gap: 0.15rem;
    font-weight: 400;
    font-size: 0.65rem;
    opacity: 0.85;
    margin-top: 0.25rem;
    padding-left: 0.75rem;
    border-left: 2px solid color-mix(in srgb, currentColor 15%, transparent);
  }

  .tree-indent {
    padding-left: 0.5rem;
    opacity: 0.75;
  }

  /* URL Construction */
  .url-construction {
    margin: 1rem 0;
  }

  .url-code {
    background: color-mix(in srgb, currentColor 3%, transparent);
    border: 1px solid color-mix(in srgb, currentColor 12%, transparent);
    border-radius: 6px;
    padding: 0.75rem;
    margin-bottom: 0.75rem;
  }

  .url-code pre {
    margin: 0;
    font-size: 0.7rem;
    line-height: 1.5;
    overflow-x: auto;
  }

  .url-code code {
    font-family: "IBM Plex Mono", monospace;
  }

  .url-examples {
    display: flex;
    flex-direction: column;
    gap: 0.5rem;
  }

  .url-example {
    display: flex;
    align-items: center;
    gap: 0.75rem;
    font-family: "IBM Plex Mono", monospace;
    font-size: 0.7rem;
    padding: 0.5rem 0.75rem;
    background: color-mix(in srgb, currentColor 3%, transparent);
    border-radius: 4px;
  }

  .url-input {
    opacity: 0.7;
  }

  .url-arrow {
    color: #10b981;
  }

  .url-output {
    color: #10b981;
  }

  /* Debug Helper */
  .debug-helper {
    background: color-mix(in srgb, currentColor 3%, transparent);
    border: 1px solid color-mix(in srgb, currentColor 12%, transparent);
    border-radius: 6px;
    padding: 1rem;
    margin: 1rem 0;
  }

  .debug-intro {
    font-size: 0.8rem;
    margin-bottom: 0.75rem;
  }

  .debug-intro code {
    font-family: "IBM Plex Mono", monospace;
    color: #f59e0b;
  }

  .debug-commands {
    display: flex;
    flex-direction: column;
    gap: 0.35rem;
  }

  .debug-cmd {
    display: grid;
    grid-template-columns: 1fr auto;
    gap: 1rem;
    font-size: 0.7rem;
    padding: 0.4rem 0.6rem;
    background: color-mix(in srgb, currentColor 3%, transparent);
    border-radius: 4px;
  }

  .debug-cmd code {
    font-family: "IBM Plex Mono", monospace;
    color: #f59e0b;
  }

  .debug-desc {
    opacity: 0.6;
    text-align: right;
  }

  @media (max-width: 640px) {
    .ws-poller {
      grid-template-columns: 1fr;
      gap: 0.25rem;
    }

    .poller-interval {
      display: none;
    }

    .debug-cmd {
      grid-template-columns: 1fr;
      gap: 0.25rem;
    }

    .debug-desc {
      text-align: left;
      font-size: 0.65rem;
    }
  }

  /* ===== CDP/LLDP Link Discovery Deep Dive ===== */

  .cdp-architecture {
    display: flex;
    flex-direction: column;
    gap: 0.5rem;
    margin: 1rem 0;
  }

  .cdp-layer {
    background: color-mix(in srgb, currentColor 3%, transparent);
    border: 1px solid color-mix(in srgb, currentColor 12%, transparent);
    border-radius: 6px;
    overflow: hidden;
  }

  .cdp-layer.infrastructure {
    border-color: color-mix(in srgb, #3b82f6 30%, transparent);
  }

  .cdp-layer.backend {
    border-color: color-mix(in srgb, #10b981 30%, transparent);
  }

  .cdp-layer.aggregator {
    border-color: color-mix(in srgb, #f59e0b 30%, transparent);
  }

  .cdp-layer.frontend {
    border-color: color-mix(in srgb, #8b5cf6 30%, transparent);
  }

  .cdp-layer-header {
    display: flex;
    align-items: center;
    gap: 0.5rem;
    padding: 0.6rem 1rem;
    border-bottom: 1px solid color-mix(in srgb, currentColor 8%, transparent);
  }

  .cdp-layer.infrastructure .cdp-layer-header { background: color-mix(in srgb, #3b82f6 8%, transparent); }
  .cdp-layer.backend .cdp-layer-header { background: color-mix(in srgb, #10b981 8%, transparent); }
  .cdp-layer.aggregator .cdp-layer-header { background: color-mix(in srgb, #f59e0b 8%, transparent); }
  .cdp-layer.frontend .cdp-layer-header { background: color-mix(in srgb, #8b5cf6 8%, transparent); }

  .cdp-layer-icon {
    font-size: 1rem;
  }

  .cdp-layer-title {
    font-family: "IBM Plex Mono", monospace;
    font-size: 0.75rem;
    font-weight: 600;
  }

  .cdp-layer.infrastructure .cdp-layer-title { color: #3b82f6; }
  .cdp-layer.backend .cdp-layer-title { color: #10b981; }
  .cdp-layer.aggregator .cdp-layer-title { color: #f59e0b; }
  .cdp-layer.frontend .cdp-layer-title { color: #8b5cf6; }

  .cdp-switches {
    display: flex;
    align-items: center;
    justify-content: center;
    gap: 0.5rem;
    padding: 1rem;
    flex-wrap: wrap;
  }

  .cdp-switch {
    display: flex;
    flex-direction: column;
    align-items: center;
    padding: 0.5rem 0.75rem;
    background: color-mix(in srgb, currentColor 5%, transparent);
    border: 1px solid color-mix(in srgb, currentColor 15%, transparent);
    border-radius: 4px;
  }

  .cdp-switch.more {
    opacity: 0.5;
  }

  .switch-name {
    font-family: "IBM Plex Mono", monospace;
    font-size: 0.75rem;
    font-weight: 600;
  }

  .switch-type {
    font-size: 0.6rem;
    opacity: 0.6;
  }

  .cdp-arrow-bidir {
    font-family: "IBM Plex Mono", monospace;
    font-size: 0.65rem;
    color: #10b981;
    opacity: 0.8;
  }

  .cdp-snmp-flow {
    display: flex;
    flex-direction: column;
    align-items: center;
    padding: 0.5rem;
    border-top: 1px dashed color-mix(in srgb, currentColor 15%, transparent);
  }

  .snmp-label {
    font-size: 0.65rem;
    opacity: 0.6;
  }

  .snmp-arrow {
    color: #10b981;
  }

  .cdp-librenms {
    padding: 0.75rem 1rem;
    background: color-mix(in srgb, #10b981 5%, transparent);
    border-top: 1px solid color-mix(in srgb, #10b981 20%, transparent);
  }

  .librenms-header {
    font-family: "IBM Plex Mono", monospace;
    font-size: 0.8rem;
    font-weight: 600;
    color: #10b981;
    margin-bottom: 0.35rem;
  }

  .librenms-endpoint code {
    font-family: "IBM Plex Mono", monospace;
    font-size: 0.7rem;
    background: color-mix(in srgb, currentColor 5%, transparent);
    padding: 0.15rem 0.4rem;
    border-radius: 3px;
  }

  .librenms-returns {
    font-size: 0.65rem;
    opacity: 0.7;
    margin-top: 0.35rem;
  }

  .cdp-flow-arrow {
    text-align: center;
    font-family: "IBM Plex Mono", monospace;
    font-size: 0.75rem;
    color: #10b981;
    padding: 0.25rem 0;
  }

  .cdp-backend-flow {
    padding: 0.75rem 1rem;
  }

  .backend-func {
    display: flex;
    align-items: center;
    gap: 0.5rem;
    margin-bottom: 0.5rem;
  }

  .func-name {
    font-family: "IBM Plex Mono", monospace;
    font-size: 0.8rem;
    font-weight: 600;
    color: #10b981;
  }

  .func-file {
    font-size: 0.65rem;
    opacity: 0.5;
  }

  .backend-steps {
    display: flex;
    flex-direction: column;
    gap: 0.25rem;
    padding-left: 0.75rem;
    border-left: 2px solid color-mix(in srgb, #10b981 30%, transparent);
  }

  .backend-step {
    font-size: 0.7rem;
    opacity: 0.85;
  }

  .cdp-cache-block {
    margin: 0.75rem 1rem 1rem;
    background: color-mix(in srgb, currentColor 3%, transparent);
    border: 1px solid color-mix(in srgb, currentColor 10%, transparent);
    border-radius: 4px;
    overflow: hidden;
  }

  .cache-key {
    font-family: "IBM Plex Mono", monospace;
    font-size: 0.7rem;
    padding: 0.4rem 0.75rem;
    background: color-mix(in srgb, currentColor 3%, transparent);
    border-bottom: 1px solid color-mix(in srgb, currentColor 8%, transparent);
    color: #f59e0b;
  }

  .cdp-cache-block pre {
    margin: 0;
    padding: 0.5rem 0.75rem;
    font-size: 0.65rem;
    line-height: 1.4;
    overflow-x: auto;
  }

  .cdp-cache-block code {
    font-family: "IBM Plex Mono", monospace;
  }

  .aggregator-steps {
    padding: 0.75rem 1rem;
    display: flex;
    flex-direction: column;
    gap: 0.5rem;
  }

  .agg-step {
    display: flex;
    gap: 0.75rem;
    align-items: flex-start;
  }

  .agg-step .step-num {
    display: flex;
    align-items: center;
    justify-content: center;
    min-width: 22px;
    height: 22px;
    background: #f59e0b;
    color: white;
    border-radius: 50%;
    font-size: 0.65rem;
    font-weight: 600;
    flex-shrink: 0;
  }

  .agg-step .step-content {
    display: flex;
    flex-direction: column;
    gap: 0.15rem;
  }

  .agg-step .step-title {
    font-family: "IBM Plex Mono", monospace;
    font-size: 0.75rem;
    font-weight: 600;
  }

  .agg-step .step-detail {
    font-size: 0.7rem;
    opacity: 0.75;
  }

  .agg-step code {
    font-family: "IBM Plex Mono", monospace;
    font-size: 0.65rem;
    opacity: 0.8;
  }

  .frontend-renders {
    padding: 0.75rem 1rem;
    font-size: 0.75rem;
    opacity: 0.85;
  }

  /* CDP Models Grid */
  .cdp-models-grid {
    display: grid;
    grid-template-columns: repeat(auto-fit, minmax(280px, 1fr));
    gap: 1rem;
    margin: 1rem 0;
  }

  .cdp-model-card {
    background: color-mix(in srgb, currentColor 3%, transparent);
    border: 1px solid color-mix(in srgb, currentColor 12%, transparent);
    border-radius: 6px;
    overflow: hidden;
  }

  .model-header {
    font-family: "IBM Plex Mono", monospace;
    font-size: 0.75rem;
    font-weight: 600;
    padding: 0.5rem 0.75rem;
    background: color-mix(in srgb, currentColor 3%, transparent);
    border-bottom: 1px solid color-mix(in srgb, currentColor 8%, transparent);
    color: #3b82f6;
  }

  .cdp-model-card pre {
    margin: 0;
    padding: 0.75rem;
    font-size: 0.65rem;
    line-height: 1.5;
    overflow-x: auto;
  }

  .cdp-model-card code {
    font-family: "IBM Plex Mono", monospace;
  }

  /* Port Resolution Block */
  .port-resolution-block {
    display: grid;
    grid-template-columns: 1fr 1.5fr;
    gap: 1rem;
    margin: 1rem 0;
  }

  @media (max-width: 768px) {
    .port-resolution-block {
      grid-template-columns: 1fr;
    }
  }

  .resolution-problem {
    background: color-mix(in srgb, #ef4444 8%, transparent);
    border: 1px solid color-mix(in srgb, #ef4444 25%, transparent);
    border-radius: 6px;
    padding: 1rem;
  }

  .problem-label {
    font-family: "IBM Plex Mono", monospace;
    font-size: 0.7rem;
    font-weight: 600;
    color: #ef4444;
    margin-bottom: 0.5rem;
  }

  .problem-content {
    font-size: 0.75rem;
    line-height: 1.5;
  }

  .problem-content code {
    font-family: "IBM Plex Mono", monospace;
    font-size: 0.7rem;
    background: color-mix(in srgb, currentColor 5%, transparent);
    padding: 0.1rem 0.3rem;
    border-radius: 3px;
  }

  .resolution-solution {
    background: color-mix(in srgb, #10b981 8%, transparent);
    border: 1px solid color-mix(in srgb, #10b981 25%, transparent);
    border-radius: 6px;
    padding: 1rem;
  }

  .solution-label {
    font-family: "IBM Plex Mono", monospace;
    font-size: 0.7rem;
    font-weight: 600;
    color: #10b981;
    margin-bottom: 0.5rem;
  }

  .solution-steps {
    display: flex;
    flex-direction: column;
    gap: 0.25rem;
    margin-bottom: 0.75rem;
  }

  .sol-step {
    font-size: 0.75rem;
    opacity: 0.9;
  }

  .solution-gotcha {
    font-size: 0.7rem;
    padding: 0.5rem;
    background: color-mix(in srgb, #f59e0b 10%, transparent);
    border-radius: 4px;
  }

  .gotcha-label {
    font-family: "IBM Plex Mono", monospace;
    font-weight: 600;
    color: #f59e0b;
  }

  .solution-gotcha code {
    font-family: "IBM Plex Mono", monospace;
    font-size: 0.65rem;
  }

  /* Deduplication Block */
  .dedup-block {
    background: color-mix(in srgb, currentColor 3%, transparent);
    border: 1px solid color-mix(in srgb, currentColor 12%, transparent);
    border-radius: 6px;
    padding: 1rem;
    margin: 1rem 0;
  }

  .dedup-scenario {
    font-size: 0.8rem;
    margin-bottom: 0.75rem;
  }

  .scenario-label {
    font-family: "IBM Plex Mono", monospace;
    font-weight: 600;
    color: #f59e0b;
  }

  .dedup-solution {
    display: grid;
    grid-template-columns: 1.5fr 1fr;
    gap: 1rem;
  }

  @media (max-width: 768px) {
    .dedup-solution {
      grid-template-columns: 1fr;
    }
  }

  .dedup-code pre {
    margin: 0;
    padding: 0.75rem;
    background: color-mix(in srgb, currentColor 3%, transparent);
    border-radius: 4px;
    font-size: 0.65rem;
    line-height: 1.5;
    overflow-x: auto;
  }

  .dedup-code code {
    font-family: "IBM Plex Mono", monospace;
  }

  .dedup-result {
    display: flex;
    flex-direction: column;
    gap: 0.35rem;
    justify-content: center;
  }

  .result-item {
    display: flex;
    align-items: center;
    gap: 0.5rem;
    font-size: 0.75rem;
  }

  .result-icon {
    color: #10b981;
    font-weight: 600;
  }

  /* Static Merge Block */
  .static-merge-block {
    display: grid;
    grid-template-columns: 1fr 1.5fr;
    gap: 1rem;
    margin: 1rem 0;
  }

  @media (max-width: 768px) {
    .static-merge-block {
      grid-template-columns: 1fr;
    }
  }

  .non-cdp-devices {
    background: color-mix(in srgb, currentColor 3%, transparent);
    border: 1px solid color-mix(in srgb, currentColor 12%, transparent);
    border-radius: 6px;
    padding: 1rem;
  }

  .non-cdp-header {
    font-family: "IBM Plex Mono", monospace;
    font-size: 0.75rem;
    font-weight: 600;
    margin-bottom: 0.5rem;
    color: #ef4444;
  }

  .non-cdp-list {
    display: flex;
    flex-direction: column;
    gap: 0.25rem;
  }

  .non-cdp-item {
    font-size: 0.7rem;
    opacity: 0.85;
    padding-left: 0.75rem;
    border-left: 2px solid color-mix(in srgb, #ef4444 30%, transparent);
  }

  .static-yaml-example {
    grid-column: span 1;
  }

  .yaml-header {
    font-family: "IBM Plex Mono", monospace;
    font-size: 0.75rem;
    font-weight: 600;
    margin-bottom: 0.5rem;
    color: #10b981;
  }

  .static-yaml-example pre {
    margin: 0;
    padding: 0.75rem;
    background: color-mix(in srgb, currentColor 3%, transparent);
    border: 1px solid color-mix(in srgb, currentColor 10%, transparent);
    border-radius: 4px;
    font-size: 0.65rem;
    line-height: 1.5;
    overflow-x: auto;
  }

  .static-yaml-example code {
    font-family: "IBM Plex Mono", monospace;
  }

  .connection-types {
    grid-column: 1 / -1;
    background: color-mix(in srgb, currentColor 3%, transparent);
    border: 1px solid color-mix(in srgb, currentColor 12%, transparent);
    border-radius: 6px;
    padding: 1rem;
  }

  .conn-types-header {
    font-family: "IBM Plex Mono", monospace;
    font-size: 0.75rem;
    font-weight: 600;
    margin-bottom: 0.5rem;
  }

  .conn-type-grid {
    display: grid;
    grid-template-columns: repeat(auto-fit, minmax(200px, 1fr));
    gap: 0.35rem;
  }

  .conn-type {
    font-size: 0.7rem;
    opacity: 0.85;
  }

  .conn-type code {
    font-family: "IBM Plex Mono", monospace;
    color: #10b981;
    margin-right: 0.35rem;
  }

  /* Status Derivation */
  .status-derivation {
    background: color-mix(in srgb, currentColor 3%, transparent);
    border: 1px solid color-mix(in srgb, currentColor 12%, transparent);
    border-radius: 6px;
    padding: 1rem;
    margin: 1rem 0;
  }

  .derivation-note {
    font-family: "IBM Plex Mono", monospace;
    font-size: 0.75rem;
    font-weight: 600;
    margin-bottom: 0.75rem;
    color: #f59e0b;
  }

  .derivation-algo pre {
    margin: 0 0 0.75rem;
    padding: 0.75rem;
    background: color-mix(in srgb, currentColor 3%, transparent);
    border-radius: 4px;
    font-size: 0.65rem;
    line-height: 1.5;
    overflow-x: auto;
  }

  .derivation-algo code {
    font-family: "IBM Plex Mono", monospace;
  }

  .derivation-why {
    display: flex;
    flex-direction: column;
    gap: 0.25rem;
    font-size: 0.75rem;
  }

  .why-label {
    font-family: "IBM Plex Mono", monospace;
    font-weight: 600;
    opacity: 0.7;
  }

  .why-reason {
    opacity: 0.85;
  }

  /* CDP Component Tree */
  .cdp-component-tree {
    background: color-mix(in srgb, currentColor 3%, transparent);
    border: 1px solid color-mix(in srgb, currentColor 12%, transparent);
    border-radius: 6px;
    padding: 1rem;
    margin: 1rem 0;
  }

  .comp-dir {
    font-family: "IBM Plex Mono", monospace;
    font-size: 0.8rem;
    font-weight: 600;
    margin-bottom: 0.75rem;
    color: #3b82f6;
  }

  .comp-files {
    display: flex;
    flex-direction: column;
    gap: 0.75rem;
    padding-left: 1rem;
    border-left: 2px solid color-mix(in srgb, currentColor 15%, transparent);
  }

  .comp-file {
    display: flex;
    flex-direction: column;
    gap: 0.25rem;
  }

  .file-name {
    font-family: "IBM Plex Mono", monospace;
    font-size: 0.75rem;
    font-weight: 600;
    color: #10b981;
  }

  .file-contents {
    display: flex;
    flex-direction: column;
    gap: 0.15rem;
    font-size: 0.7rem;
    opacity: 0.8;
    padding-left: 0.75rem;
  }

  /* API Endpoints Grid */
  .api-endpoints-grid {
    display: grid;
    grid-template-columns: repeat(auto-fit, minmax(280px, 1fr));
    gap: 1rem;
    margin: 1rem 0;
  }

  .api-endpoint-card {
    background: color-mix(in srgb, currentColor 3%, transparent);
    border: 1px solid color-mix(in srgb, currentColor 12%, transparent);
    border-radius: 6px;
    overflow: hidden;
  }

  .endpoint-header {
    font-family: "IBM Plex Mono", monospace;
    font-size: 0.75rem;
    font-weight: 600;
    padding: 0.5rem 0.75rem;
    background: color-mix(in srgb, #10b981 10%, transparent);
    border-bottom: 1px solid color-mix(in srgb, currentColor 8%, transparent);
    color: #10b981;
  }

  .endpoint-desc {
    font-size: 0.7rem;
    opacity: 0.75;
    padding: 0.5rem 0.75rem;
    border-bottom: 1px solid color-mix(in srgb, currentColor 5%, transparent);
  }

  .api-endpoint-card pre {
    margin: 0;
    padding: 0.5rem 0.75rem;
    font-size: 0.6rem;
    line-height: 1.4;
    overflow-x: auto;
  }

  .api-endpoint-card code {
    font-family: "IBM Plex Mono", monospace;
  }

  /* Limitations Block */
  .limitations-block {
    display: flex;
    flex-direction: column;
    gap: 0.75rem;
    margin: 1rem 0;
  }

  .limitation-item {
    display: flex;
    gap: 0.75rem;
    padding: 0.75rem 1rem;
    background: color-mix(in srgb, #f59e0b 8%, transparent);
    border: 1px solid color-mix(in srgb, #f59e0b 20%, transparent);
    border-radius: 6px;
  }

  .limit-icon {
    font-size: 1rem;
    flex-shrink: 0;
  }

  .limit-content {
    display: flex;
    flex-direction: column;
    gap: 0.2rem;
  }

  .limit-title {
    font-family: "IBM Plex Mono", monospace;
    font-size: 0.75rem;
    font-weight: 600;
  }

  .limit-desc {
    font-size: 0.7rem;
    opacity: 0.85;
  }

  .limit-workaround {
    font-size: 0.65rem;
    opacity: 0.7;
    font-style: italic;
  }
</style>
